Neural Network Tools for STM32AI v1.7.0 (STM.ai v8.0.0-19389)
Created date          : 2023-03-29 15:46:55
Parameters            : generate --name network -m /home/matthias/Documents/BA/no_git_layer_benchmark/layer-benchmark-scripting/scripting/models_and_data/keyword_spotting/models/kws_ref_model_int8.tflite --type tflite --compression none --verbosity 1 --workspace /tmp/mxAI_workspace1698615951403017390536814154827496 --output /home/matthias/.stm32cubemx/network_output --allocate-inputs --series stm32l4 --allocate-outputs

Exec/report summary (generate)
----------------------------------------------------------------------------------------------------------------------------------------------------------------------------------
model file         :   /home/matthias/Documents/BA/no_git_layer_benchmark/layer-benchmark-scripting/scripting/models_and_data/keyword_spotting/models/kws_ref_model_int8.tflite   
type               :   tflite                                                                                                                                                     
c_name             :   network                                                                                                                                                    
compression        :   none                                                                                                                                                       
options            :   allocate-inputs, allocate-outputs                                                                                                                          
optimization       :   balanced                                                                                                                                                   
target/series      :   stm32l4                                                                                                                                                    
workspace dir      :   /tmp/mxAI_workspace1698615951403017390536814154827496                                                                                                      
output dir         :   /home/matthias/.stm32cubemx/network_output                                                                                                                 
model_fmt          :   ss/sa per-channel                                                                                                                                          
model_name         :   kws_ref_model_int8                                                                                                                                         
model_hash         :   dd6312acf9c95598678f7a36673d715b                                                                                                                           
params #           :   22,604 items (23.80 KiB)                                                                                                                                   
----------------------------------------------------------------------------------------------------------------------------------------------------------------------------------
input 1/1          :   'input_1' (domain:activations/**default**)                                                                                                                 
                   :   490 items, 490 B, ai_i8, s=0.58470291, zp=83, (1,49,10,1)                                                                                                  
output 1/1         :   'nl_12_0_conversion' (domain:activations/**default**)                                                                                                      
                   :   12 items, 12 B, ai_i8, s=0.00390625, zp=-128, (1,1,1,12)                                                                                                   
macc               :   2,665,584                                                                                                                                                  
weights (ro)       :   24,368 B (23.80 KiB) (1 segment) / -66,048(-73.0%) vs float model                                                                                          
activations (rw)   :   17,996 B (17.57 KiB) (1 segment) *                                                                                                                         
ram (total)        :   17,996 B (17.57 KiB) = 17,996 + 0 + 0                                                                                                                      
----------------------------------------------------------------------------------------------------------------------------------------------------------------------------------
(*) 'input'/'output' buffers can be used from the activations buffer

Model name - kws_ref_model_int8 ['input_1'] ['nl_12_0_conversion']
------ ------------------------------------------- --------------------- ------------- --------- -------------- --- ----------------- ------------------- ---------------------------------- 
m_id   layer (type,original)                       oshape                param/size         macc   connected to   | c_size            c_macc              c_type                             
------ ------------------------------------------- --------------------- ------------- --------- -------------- --- ----------------- ------------------- ---------------------------------- 
0      input_1 (Input, )                           [b:1,h:49,w:10,c:1]                                            | +2,816(+100.0%)   +320,064(+100.0%)   conv2d_oi8[0]                      
       conv2d_0 (Conv2D, CONV_2D)                  [b:1,h:25,w:5,c:64]   2,624/2,816     320,064        input_1   | -2,816(-100.0%)   -320,064(-100.0%)   
       nl_0_nl (Nonlinearity, CONV_2D)             [b:1,h:25,w:5,c:64]                     8,000       conv2d_0   |                   -8,000(-100.0%)     
------ ------------------------------------------- --------------------- ------------- --------- -------------- --- ----------------- ------------------- ---------------------------------- 
1      conv2d_1 (Conv2D, DEPTHWISE_CONV_2D)        [b:1,h:25,w:5,c:64]   640/832          72,064        nl_0_nl   |                                       pad_oi8/conv2d_oi8[1, 2]           
       nl_1_nl (Nonlinearity, DEPTHWISE_CONV_2D)   [b:1,h:25,w:5,c:64]                     8,000       conv2d_1   |                   -8,000(-100.0%)     
------ ------------------------------------------- --------------------- ------------- --------- -------------- --- ----------------- ------------------- ---------------------------------- 
2      conv2d_2 (Conv2D, CONV_2D)                  [b:1,h:25,w:5,c:64]   4,160/4,352     512,064        nl_1_nl   |                                       conv2d_oi8[3]                      
       nl_2_nl (Nonlinearity, CONV_2D)             [b:1,h:25,w:5,c:64]                     8,000       conv2d_2   |                   -8,000(-100.0%)     
------ ------------------------------------------- --------------------- ------------- --------- -------------- --- ----------------- ------------------- ---------------------------------- 
3      conv2d_3 (Conv2D, DEPTHWISE_CONV_2D)        [b:1,h:25,w:5,c:64]   640/832          72,064        nl_2_nl   |                                       pad_oi8/conv2d_oi8[4, 5]           
       nl_3_nl (Nonlinearity, DEPTHWISE_CONV_2D)   [b:1,h:25,w:5,c:64]                     8,000       conv2d_3   |                   -8,000(-100.0%)     
------ ------------------------------------------- --------------------- ------------- --------- -------------- --- ----------------- ------------------- ---------------------------------- 
4      conv2d_4 (Conv2D, CONV_2D)                  [b:1,h:25,w:5,c:64]   4,160/4,352     512,064        nl_3_nl   |                                       conv2d_oi8[6]                      
       nl_4_nl (Nonlinearity, CONV_2D)             [b:1,h:25,w:5,c:64]                     8,000       conv2d_4   |                   -8,000(-100.0%)     
------ ------------------------------------------- --------------------- ------------- --------- -------------- --- ----------------- ------------------- ---------------------------------- 
5      conv2d_5 (Conv2D, DEPTHWISE_CONV_2D)        [b:1,h:25,w:5,c:64]   640/832          72,064        nl_4_nl   |                                       pad_oi8/conv2d_oi8[7, 8]           
       nl_5_nl (Nonlinearity, DEPTHWISE_CONV_2D)   [b:1,h:25,w:5,c:64]                     8,000       conv2d_5   |                   -8,000(-100.0%)     
------ ------------------------------------------- --------------------- ------------- --------- -------------- --- ----------------- ------------------- ---------------------------------- 
6      conv2d_6 (Conv2D, CONV_2D)                  [b:1,h:25,w:5,c:64]   4,160/4,352     512,064        nl_5_nl   |                                       conv2d_oi8[9]                      
       nl_6_nl (Nonlinearity, CONV_2D)             [b:1,h:25,w:5,c:64]                     8,000       conv2d_6   |                   -8,000(-100.0%)     
------ ------------------------------------------- --------------------- ------------- --------- -------------- --- ----------------- ------------------- ---------------------------------- 
7      conv2d_7 (Conv2D, DEPTHWISE_CONV_2D)        [b:1,h:25,w:5,c:64]   640/832          72,064        nl_6_nl   |                                       pad_oi8/conv2d_oi8[10, 11]         
       nl_7_nl (Nonlinearity, DEPTHWISE_CONV_2D)   [b:1,h:25,w:5,c:64]                     8,000       conv2d_7   |                   -8,000(-100.0%)     
------ ------------------------------------------- --------------------- ------------- --------- -------------- --- ----------------- ------------------- ---------------------------------- 
8      conv2d_8 (Conv2D, CONV_2D)                  [b:1,h:25,w:5,c:64]   4,160/4,352     512,064        nl_7_nl   |                                       conv2d_oi8[12]                     
       nl_8_nl (Nonlinearity, CONV_2D)             [b:1,h:25,w:5,c:64]                     8,000       conv2d_8   |                   -8,000(-100.0%)     
------ ------------------------------------------- --------------------- ------------- --------- -------------- --- ----------------- ------------------- ---------------------------------- 
9      pool_9 (Pool, AVERAGE_POOL_2D)              [b:1,h:1,w:1,c:64]                      8,000        nl_8_nl   |                                       pool_oi8[13]                       
------ ------------------------------------------- --------------------- ------------- --------- -------------- --- ----------------- ------------------- ---------------------------------- 
10     reshape_10 (Reshape, RESHAPE)               [b:1,c:64]                                            pool_9   |                                       
------ ------------------------------------------- --------------------- ------------- --------- -------------- --- ----------------- ------------------- ---------------------------------- 
11     dense_11 (Dense, FULLY_CONNECTED)           [b:1,c:12]            780/816             780     reshape_10   |                   +24(+3.1%)          dense_oi8/converter_of32[14, 15]   
------ ------------------------------------------- --------------------- ------------- --------- -------------- --- ----------------- ------------------- ---------------------------------- 
12     nl_12 (Nonlinearity, SOFTMAX)               [b:1,c:12]                                180       dense_11   |                   +24(+13.3%)         nl_of32/converter_oi8[o][16, 17]   
------ ------------------------------------------- --------------------- ------------- --------- -------------- --- ----------------- ------------------- ---------------------------------- 
model/c-model: macc=2,737,536/2,665,584 -71,952(-2.6%) weights=24,368/24,368  activations=--/17,996 io=--/0



Generated C-graph summary
------------------------------------------------------------------------------------------------------------------------
model name            : kws_ref_model_int8
c-name                : network
c-node #              : 18
c-array #             : 49
activations size      : 17996 (1 segment)
weights size          : 24368 (1 segment)
macc                  : 2665584
inputs                : ['input_1_output']
outputs               : ['nl_12_0_conversion_output']

C-Arrays (49)
------ ------------------------------ ------------- ------------------------- --------------- ------------- --------- 
c_id   name (*_array)                 item/size     domain/mem-pool           c-type          fmt           comment   
------ ------------------------------ ------------- ------------------------- --------------- ------------- --------- 
0      conv2d_6_weights               4096/4096     weights/weights           const int8_t    ss8/ch(64)              
1      conv2d_6_bias                  64/256        weights/weights           const int32_t   ss32/ch(64)             
2      conv2d_7_weights               576/576       weights/weights           const int8_t    ss8/ch(64)              
3      conv2d_7_bias                  64/256        weights/weights           const int32_t   ss32/ch(64)             
4      conv2d_8_weights               4096/4096     weights/weights           const int8_t    ss8/ch(64)              
5      conv2d_8_bias                  64/256        weights/weights           const int32_t   ss32/ch(64)             
6      dense_11_weights               768/768       weights/weights           const int8_t    ss8                     
7      input_1_output                 490/490       activations/**default**   int8_t          sa8           /input    
8      conv2d_0_output                8000/8000     activations/**default**   int8_t          sa8                     
9      dense_11_bias                  12/48         weights/weights           const int32_t   ss32                    
10     conv2d_1_pad_before_output     12096/12096   activations/**default**   int8_t          sa8                     
11     conv2d_1_output                8000/8000     activations/**default**   int8_t          sa8                     
12     conv2d_2_output                8000/8000     activations/**default**   int8_t          sa8                     
13     conv2d_0_scratch0              5920/5920     activations/**default**   int8_t          s8                      
14     conv2d_3_pad_before_output     12096/12096   activations/**default**   int8_t          sa8                     
15     conv2d_3_output                8000/8000     activations/**default**   int8_t          sa8                     
16     conv2d_1_scratch0              2369/2369     activations/**default**   int8_t          s8                      
17     conv2d_4_output                8000/8000     activations/**default**   int8_t          sa8                     
18     conv2d_5_pad_before_output     12096/12096   activations/**default**   int8_t          sa8                     
19     conv2d_5_output                8000/8000     activations/**default**   int8_t          sa8                     
20     conv2d_2_scratch0              896/896       activations/**default**   int8_t          s8                      
21     conv2d_6_output                8000/8000     activations/**default**   int8_t          sa8                     
22     conv2d_7_pad_before_output     12096/12096   activations/**default**   int8_t          sa8                     
23     conv2d_3_scratch0              2369/2369     activations/**default**   int8_t          s8                      
24     conv2d_7_output                8000/8000     activations/**default**   int8_t          sa8                     
25     conv2d_8_output                8000/8000     activations/**default**   int8_t          sa8                     
26     pool_9_output                  64/64         activations/**default**   int8_t          sa8                     
27     conv2d_4_scratch0              896/896       activations/**default**   int8_t          s8                      
28     dense_11_output                12/12         activations/**default**   int8_t          sa8                     
29     dense_11_0_conversion_output   12/48         activations/**default**   float           float32                 
30     conv2d_5_scratch0              2369/2369     activations/**default**   int8_t          s8                      
31     nl_12_output                   12/48         activations/**default**   float           float32                 
32     nl_12_0_conversion_output      12/12         activations/**default**   int8_t          sa8           /output   
33     conv2d_6_scratch0              896/896       activations/**default**   int8_t          s8                      
34     conv2d_7_scratch0              2369/2369     activations/**default**   int8_t          s8                      
35     conv2d_8_scratch0              896/896       activations/**default**   int8_t          s8                      
36     dense_11_scratch0              64/128        activations/**default**   int16_t         s16                     
37     conv2d_0_weights               2560/2560     weights/weights           const int8_t    ss8/ch(64)              
38     conv2d_0_bias                  64/256        weights/weights           const int32_t   ss32/ch(64)             
39     conv2d_1_weights               576/576       weights/weights           const int8_t    ss8/ch(64)              
40     conv2d_1_bias                  64/256        weights/weights           const int32_t   ss32/ch(64)             
41     conv2d_2_weights               4096/4096     weights/weights           const int8_t    ss8/ch(64)              
42     conv2d_2_bias                  64/256        weights/weights           const int32_t   ss32/ch(64)             
43     conv2d_3_weights               576/576       weights/weights           const int8_t    ss8/ch(64)              
44     conv2d_3_bias                  64/256        weights/weights           const int32_t   ss32/ch(64)             
45     conv2d_4_weights               4096/4096     weights/weights           const int8_t    ss8/ch(64)              
46     conv2d_4_bias                  64/256        weights/weights           const int32_t   ss32/ch(64)             
47     conv2d_5_weights               576/576       weights/weights           const int8_t    ss8/ch(64)              
48     conv2d_5_bias                  64/256        weights/weights           const int32_t   ss32/ch(64)             
------ ------------------------------ ------------- ------------------------- --------------- ------------- --------- 

C-Layers (18)
------ ----------------------- ---- ------------ -------- ------ --------------------------------- ------------------ 
c_id   name (*_layer)          id   layer_type   macc     rom    tensors                           shape (array id)   
------ ----------------------- ---- ------------ -------- ------ --------------------------------- ------------------ 
0      conv2d_0                0    conv2d       320064   2816   I: input_1_output                 (1,49,10,1) (7)    
                                                                 S: conv2d_0_scratch0                                 
                                                                 W: conv2d_0_weights               (1,64,10,4) (37)   
                                                                 W: conv2d_0_bias                  (1,1,1,64) (38)    
                                                                 O: conv2d_0_output                (1,25,5,64) (8)    
------ ----------------------- ---- ------------ -------- ------ --------------------------------- ------------------ 
1      conv2d_1_pad_before     1    pad          0        0      I: conv2d_0_output                (1,25,5,64) (8)    
                                                                 O: conv2d_1_pad_before_output     (1,27,7,64) (10)   
------ ----------------------- ---- ------------ -------- ------ --------------------------------- ------------------ 
2      conv2d_1                1    conv2d       72064    832    I: conv2d_1_pad_before_output     (1,27,7,64) (10)   
                                                                 S: conv2d_1_scratch0                                 
                                                                 W: conv2d_1_weights               (64,1,3,3) (39)    
                                                                 W: conv2d_1_bias                  (1,1,1,64) (40)    
                                                                 O: conv2d_1_output                (1,25,5,64) (11)   
------ ----------------------- ---- ------------ -------- ------ --------------------------------- ------------------ 
3      conv2d_2                2    conv2d       512064   4352   I: conv2d_1_output                (1,25,5,64) (11)   
                                                                 S: conv2d_2_scratch0                                 
                                                                 W: conv2d_2_weights               (64,64,1,1) (41)   
                                                                 W: conv2d_2_bias                  (1,1,1,64) (42)    
                                                                 O: conv2d_2_output                (1,25,5,64) (12)   
------ ----------------------- ---- ------------ -------- ------ --------------------------------- ------------------ 
4      conv2d_3_pad_before     3    pad          0        0      I: conv2d_2_output                (1,25,5,64) (12)   
                                                                 O: conv2d_3_pad_before_output     (1,27,7,64) (14)   
------ ----------------------- ---- ------------ -------- ------ --------------------------------- ------------------ 
5      conv2d_3                3    conv2d       72064    832    I: conv2d_3_pad_before_output     (1,27,7,64) (14)   
                                                                 S: conv2d_3_scratch0                                 
                                                                 W: conv2d_3_weights               (64,1,3,3) (43)    
                                                                 W: conv2d_3_bias                  (1,1,1,64) (44)    
                                                                 O: conv2d_3_output                (1,25,5,64) (15)   
------ ----------------------- ---- ------------ -------- ------ --------------------------------- ------------------ 
6      conv2d_4                4    conv2d       512064   4352   I: conv2d_3_output                (1,25,5,64) (15)   
                                                                 S: conv2d_4_scratch0                                 
                                                                 W: conv2d_4_weights               (64,64,1,1) (45)   
                                                                 W: conv2d_4_bias                  (1,1,1,64) (46)    
                                                                 O: conv2d_4_output                (1,25,5,64) (17)   
------ ----------------------- ---- ------------ -------- ------ --------------------------------- ------------------ 
7      conv2d_5_pad_before     5    pad          0        0      I: conv2d_4_output                (1,25,5,64) (17)   
                                                                 O: conv2d_5_pad_before_output     (1,27,7,64) (18)   
------ ----------------------- ---- ------------ -------- ------ --------------------------------- ------------------ 
8      conv2d_5                5    conv2d       72064    832    I: conv2d_5_pad_before_output     (1,27,7,64) (18)   
                                                                 S: conv2d_5_scratch0                                 
                                                                 W: conv2d_5_weights               (64,1,3,3) (47)    
                                                                 W: conv2d_5_bias                  (1,1,1,64) (48)    
                                                                 O: conv2d_5_output                (1,25,5,64) (19)   
------ ----------------------- ---- ------------ -------- ------ --------------------------------- ------------------ 
9      conv2d_6                6    conv2d       512064   4352   I: conv2d_5_output                (1,25,5,64) (19)   
                                                                 S: conv2d_6_scratch0                                 
                                                                 W: conv2d_6_weights               (64,64,1,1) (0)    
                                                                 W: conv2d_6_bias                  (1,1,1,64) (1)     
                                                                 O: conv2d_6_output                (1,25,5,64) (21)   
------ ----------------------- ---- ------------ -------- ------ --------------------------------- ------------------ 
10     conv2d_7_pad_before     7    pad          0        0      I: conv2d_6_output                (1,25,5,64) (21)   
                                                                 O: conv2d_7_pad_before_output     (1,27,7,64) (22)   
------ ----------------------- ---- ------------ -------- ------ --------------------------------- ------------------ 
11     conv2d_7                7    conv2d       72064    832    I: conv2d_7_pad_before_output     (1,27,7,64) (22)   
                                                                 S: conv2d_7_scratch0                                 
                                                                 W: conv2d_7_weights               (64,1,3,3) (2)     
                                                                 W: conv2d_7_bias                  (1,1,1,64) (3)     
                                                                 O: conv2d_7_output                (1,25,5,64) (24)   
------ ----------------------- ---- ------------ -------- ------ --------------------------------- ------------------ 
12     conv2d_8                8    conv2d       512064   4352   I: conv2d_7_output                (1,25,5,64) (24)   
                                                                 S: conv2d_8_scratch0                                 
                                                                 W: conv2d_8_weights               (64,64,1,1) (4)    
                                                                 W: conv2d_8_bias                  (1,1,1,64) (5)     
                                                                 O: conv2d_8_output                (1,25,5,64) (25)   
------ ----------------------- ---- ------------ -------- ------ --------------------------------- ------------------ 
13     pool_9                  9    pool         8000     0      I: conv2d_8_output                (1,25,5,64) (25)   
                                                                 O: pool_9_output                  (1,1,1,64) (26)    
------ ----------------------- ---- ------------ -------- ------ --------------------------------- ------------------ 
14     dense_11                11   dense        780      816    I: pool_9_output                  (1,1,1,64) (26)    
                                                                 S: dense_11_scratch0                                 
                                                                 W: dense_11_weights               (64,1,1,12) (6)    
                                                                 W: dense_11_bias                  (1,1,1,12) (9)     
                                                                 O: dense_11_output                (1,1,1,12) (28)    
------ ----------------------- ---- ------------ -------- ------ --------------------------------- ------------------ 
15     dense_11_0_conversion   11   converter    24       0      I: dense_11_output                (1,1,1,12) (28)    
                                                                 O: dense_11_0_conversion_output   (1,1,1,12) (29)    
------ ----------------------- ---- ------------ -------- ------ --------------------------------- ------------------ 
16     nl_12                   12   nl           180      0      I: dense_11_0_conversion_output   (1,1,1,12) (29)    
                                                                 O: nl_12_output                   (1,1,1,12) (31)    
------ ----------------------- ---- ------------ -------- ------ --------------------------------- ------------------ 
17     nl_12_0_conversion      12   converter    24       0      I: nl_12_output                   (1,1,1,12) (31)    
                                                                 O: nl_12_0_conversion_output      (1,1,1,12) (32)    
------ ----------------------- ---- ------------ -------- ------ --------------------------------- ------------------ 



Number of operations per c-layer
------- ------ ----------------------------------- ----------- ------------- -------- ---------- 
c_id    m_id   name (type)                                 #op          type   #param   sparsity 
------- ------ ----------------------------------- ----------- ------------- -------- ---------- 
0       0      conv2d_0 (conv2d)                       320,064    smul_s8_s8    2,624     0.0088 
1       1      conv2d_1_pad_before (pad)                     0    smul_s8_s8          
2       1      conv2d_1 (conv2d)                        72,064    smul_s8_s8      640     0.0062 
3       2      conv2d_2 (conv2d)                       512,064    smul_s8_s8    4,160     0.0115 
4       3      conv2d_3_pad_before (pad)                     0    smul_s8_s8          
5       3      conv2d_3 (conv2d)                        72,064    smul_s8_s8      640     0.0031 
6       4      conv2d_4 (conv2d)                       512,064    smul_s8_s8    4,160     0.0055 
7       5      conv2d_5_pad_before (pad)                     0    smul_s8_s8          
8       5      conv2d_5 (conv2d)                        72,064    smul_s8_s8      640     0.0047 
9       6      conv2d_6 (conv2d)                       512,064    smul_s8_s8    4,160     0.0079 
10      7      conv2d_7_pad_before (pad)                     0    smul_s8_s8          
11      7      conv2d_7 (conv2d)                        72,064    smul_s8_s8      640     0.0016 
12      8      conv2d_8 (conv2d)                       512,064    smul_s8_s8    4,160     0.0070 
13      9      pool_9 (pool)                             8,000      op_s8_s8          
14      11     dense_11 (dense)                            780    smul_s8_s8      780     0.0026 
15      11     dense_11_0_conversion (converter)            24   smul_s8_f32          
16      12     nl_12 (nl)                                  180    op_f32_f32          
17      12     nl_12_0_conversion (converter)               24   smul_f32_s8          
------- ------ ----------------------------------- ----------- ------------- -------- ---------- 
total                                                2,665,584                 22,604     0.0074 

Number of operation types
---------------- ----------- ----------- 
operation type             #           % 
---------------- ----------- ----------- 
smul_s8_s8         2,657,356       99.7% 
op_s8_s8               8,000        0.3% 
smul_s8_f32               24        0.0% 
op_f32_f32               180        0.0% 
smul_f32_s8               24        0.0% 

Complexity report (model)
------ ---------- ------------------------- ------------------------- ---------- 
m_id   name       c_macc                    c_rom                     c_id       
------ ---------- ------------------------- ------------------------- ---------- 
0      input_1    ||||||||||        12.0%   ||||||||||        11.6%   [0]        
1      conv2d_1   |||                2.7%   |||                3.4%   [1, 2]     
2      conv2d_2   ||||||||||||||||  19.2%   ||||||||||||||||  17.9%   [3]        
3      conv2d_3   |||                2.7%   |||                3.4%   [4, 5]     
4      conv2d_4   ||||||||||||||||  19.2%   ||||||||||||||||  17.9%   [6]        
5      conv2d_5   |||                2.7%   |||                3.4%   [7, 8]     
6      conv2d_6   ||||||||||||||||  19.2%   ||||||||||||||||  17.9%   [9]        
7      conv2d_7   |||                2.7%   |||                3.4%   [10, 11]   
8      conv2d_8   ||||||||||||||||  19.2%   ||||||||||||||||  17.9%   [12]       
9      pool_9     |                  0.3%   |                  0.0%   [13]       
11     dense_11   |                  0.0%   |||                3.3%   [14, 15]   
12     nl_12      |                  0.0%   |                  0.0%   [16, 17]   
------ ---------- ------------------------- ------------------------- ---------- 
macc=2,665,584 weights=24,368 act=17,996 ram_io=0
 
 Requested memory size per segment ("stm32l4" series)
 ----------------------------- -------- -------- ------- -------- 
 module                            text   rodata    data      bss 
 ----------------------------- -------- -------- ------- -------- 
 NetworkRuntime800_CM4_GCC.a     28,580        0       0        0 
 network.o                        1,216    3,614   6,120      320 
 network_data.o                      52       16      88        0 
 lib (toolchain)*                 4,604       33       1        0 
 ----------------------------- -------- -------- ------- -------- 
 RT total**                      34,452    3,663   6,209      320 
 ----------------------------- -------- -------- ------- -------- 
 *weights*                            0   24,368       0        0 
 *activations*                        0        0       0   17,996 
 *io*                                 0        0       0        0 
 ----------------------------- -------- -------- ------- -------- 
 TOTAL                           34,452   28,031   6,209   18,316 
 ----------------------------- -------- -------- ------- -------- 
 *  toolchain objects (libm/libgcc*)
 ** RT - AI runtime objects (kernels+infrastructure)
  
  Summary per memory device type
  ---------------------------------------------
  .\device      FLASH       %      RAM       % 
  ---------------------------------------------
  RT total     44,324   64.5%    6,529   26.6% 
  ---------------------------------------------
  TOTAL        68,692           24,525         
  ---------------------------------------------


Generated files (7)
------------------------------------------------------------------ 
/home/matthias/.stm32cubemx/network_output/network_config.h        
/home/matthias/.stm32cubemx/network_output/network.h               
/home/matthias/.stm32cubemx/network_output/network.c               
/home/matthias/.stm32cubemx/network_output/network_data_params.h   
/home/matthias/.stm32cubemx/network_output/network_data_params.c   
/home/matthias/.stm32cubemx/network_output/network_data.h          
/home/matthias/.stm32cubemx/network_output/network_data.c          
