Check exe path on linux
FullExe path1 is: /usr/local/STMicroelectronics/STM32Cube/STM32CubeMX/STM32CubeMX
Exe path is: /usr/local/STMicroelectronics/STM32Cube/STM32CubeMX
Search java from relative path ----
Checking java in /usr/local/STMicroelectronics/STM32Cube/STM32CubeMX/./jre/bin/java
log4j user configuration file not found: /home/matthias/.stm32cubemx/log4j2.xml
Configure log4j with default settings from jar:file:/usr/local/STMicroelectronics/STM32Cube/STM32CubeMX/STM32CubeMX!/log4j/log4j2.stm32cubemx.xml
2023-10-07 15:11:48,902 [INFO] MicroXplorer:98 - [MX] MX Start == 21721482214623
2023-10-07 15:11:48,904 [INFO] MicroXplorer:653 - Detected Java Version = 11.0.17
2023-10-07 15:11:48,912 [INFO] ApplicationProperties:184 - Using Application install path: /usr/local/STMicroelectronics/STM32Cube/STM32CubeMX
2023-10-07 15:11:48,927 [INFO] DbMcusXml:78 - Set database path to: /usr/local/STMicroelectronics/STM32Cube/STM32CubeMX//db//mcu/
2023-10-07 15:11:48,927 [INFO] ApiDb:274 - Set plugin database path to: /usr/local/STMicroelectronics/STM32Cube/STM32CubeMX//db//plugins/boardmanager/
2023-10-07 15:11:48,931 [WARN] ApiDb:259 - Overriding images path with different value:  => /usr/local/STMicroelectronics/STM32Cube/STM32CubeMX//db//plugins/mcufinder/images/
2023-10-07 15:11:48,935 [INFO] McuFinderGlobals:53 - Set McuFinder mode to 1 (CubeMX integrated)
2023-10-07 15:11:48,951 [INFO] ApiDb:250 - Set database path to: /home/matthias/.stmcufinder/plugins/mcufinder//mcu/
2023-10-07 15:11:48,953 [INFO] DbMcusAds:125 - Set database path to: /home/matthias/.stmcufinder/plugins/mcufinder//mcu/
2023-10-07 15:11:49,464 [INFO] CrossReferenceDbSqlite:203 - Set database path to: /home/matthias/.stmcufinder/plugins/mcufinder//mcu/cs/
2023-10-07 15:11:49,595 [INFO] RulesReader:64 - Compatibility file has been processed (293 Rules)
2023-10-07 15:11:49,613 [INFO] STM32CubeMX:60 - Starting STM32CubeMX
2023-10-07 15:11:50,161 [INFO] MainPanel:253 - HeapMemory: 257949696
2023-10-07 15:11:50,275 [INFO] DbMcusXml:78 - Set database path to: /usr/local/STMicroelectronics/STM32Cube/STM32CubeMX//db//mcu/
2023-10-07 15:11:50,275 [INFO] ApiDb:274 - Set plugin database path to: /usr/local/STMicroelectronics/STM32Cube/STM32CubeMX//db//plugins/boardmanager/
2023-10-07 15:11:50,276 [INFO] ApiDb:261 - Set plugin images path to: /usr/local/STMicroelectronics/STM32Cube/STM32CubeMX//db//plugins/mcufinder/images/
2023-10-07 15:11:50,276 [WARN] DbFile:41 - Overriding database path with different value: /home/matthias/.stmcufinder/plugins/mcufinder/ => /home/matthias/.stmcufinder/plugins/mcufinder
2023-10-07 15:11:50,276 [INFO] ApiDb:250 - Set database path to: /home/matthias/.stmcufinder/plugins/mcufinder//mcu/
2023-10-07 15:11:50,276 [WARN] DbFile:41 - Overriding database path with different value: /home/matthias/.stmcufinder/plugins/mcufinder/ => /home/matthias/.stmcufinder/plugins/mcufinder
2023-10-07 15:11:50,277 [INFO] DbMcusAds:125 - Set database path to: /home/matthias/.stmcufinder/plugins/mcufinder//mcu/
2023-10-07 15:11:50,277 [WARN] DbFile:41 - Overriding database path with different value: /home/matthias/.stmcufinder/plugins/mcufinder/ => /home/matthias/.stmcufinder/plugins/mcufinder
2023-10-07 15:11:50,277 [WARN] DbFile:41 - Overriding database path with different value: /home/matthias/.stmcufinder/plugins/mcufinder/ => /home/matthias/.stmcufinder/plugins/mcufinder
2023-10-07 15:11:50,277 [INFO] CrossReferenceDbSqlite:203 - Set database path to: /home/matthias/.stmcufinder/plugins/mcufinder//mcu/cs/
2023-10-07 15:11:50,289 [INFO] ApplicationProperties:184 - Using Application install path: /usr/local/STMicroelectronics/STM32Cube/STM32CubeMX
2023-10-07 15:11:50,291 [INFO] PluginManage:196 - Search for loadable plugins [exclusion list=, ]
2023-10-07 15:11:50,292 [INFO] PluginManage:310 - Check plugin analytics
2023-10-07 15:11:50,522 [INFO] AnalyticsPlugin:253 - Accepted Software Licenses: STM32CubeMX.6.7.0,STM32CubeMX.6.8.0
2023-10-07 15:11:50,522 [INFO] AnalyticsPlugin:255 - Accepted CMSIS Pack Licenses: STMicroelectronics.X-CUBE-AI.8.1.0
2023-10-07 15:11:50,522 [INFO] AnalyticsPlugin:257 - Accepted Firmware Licenses: 
2023-10-07 15:11:50,530 [INFO] PluginManage:359 - Loaded plugin analytics (category:tool,tabindex:-1)
2023-10-07 15:11:50,530 [INFO] PluginManage:310 - Check plugin cadmodel
2023-10-07 15:11:50,561 [INFO] CADModel:105 - Init CAD model plugin
2023-10-07 15:11:50,562 [INFO] PluginManage:359 - Loaded plugin cadmodel (category:power,tabindex:5)
2023-10-07 15:11:50,562 [INFO] PluginManage:310 - Check plugin clock
2023-10-07 15:11:50,570 [INFO] PluginManage:359 - Loaded plugin clock (category:base,tabindex:2)
2023-10-07 15:11:50,570 [INFO] PluginManage:310 - Check plugin ddr
2023-10-07 15:11:50,573 [INFO] PluginManage:359 - Loaded plugin ddr (category:tool,tabindex:6)
2023-10-07 15:11:50,573 [INFO] PluginManage:310 - Check plugin filemanager
2023-10-07 15:11:50,686 [INFO] PluginManage:359 - Loaded plugin filemanager (category:base,tabindex:10)
2023-10-07 15:11:50,687 [INFO] PluginManage:310 - Check plugin ipmanager
2023-10-07 15:11:50,692 [INFO] PluginManage:359 - Loaded plugin ipmanager (category:base,tabindex:5)
2023-10-07 15:11:50,692 [INFO] PluginManage:310 - Check plugin lpbam
2023-10-07 15:11:50,698 [INFO] PluginManage:359 - Loaded plugin lpbam (category:base,tabindex:0)
2023-10-07 15:11:50,698 [INFO] PluginManage:310 - Check plugin pinoutandconfiguration
2023-10-07 15:11:50,703 [INFO] PluginManage:359 - Loaded plugin pinoutandconfiguration (category:base,tabindex:1)
2023-10-07 15:11:50,704 [INFO] PluginManage:310 - Check plugin pinoutconfig
2023-10-07 15:11:50,778 [WARN] SupportedApi:132 - Cannot load RTOS API schema: s4s-elt-must-match.1: The content of 'definitions' must match (annotation?, (simpleType | complexType)?, (unique | key | keyref)*)). A problem was found starting at: attribute.
2023-10-07 15:11:50,907 [INFO] PluginManage:359 - Loaded plugin pinoutconfig (category:base,tabindex:0)
2023-10-07 15:11:50,907 [INFO] PluginManage:310 - Check plugin power
2023-10-07 15:11:50,917 [INFO] PluginManage:359 - Loaded plugin power (category:power,tabindex:4)
2023-10-07 15:11:50,918 [INFO] PluginManage:310 - Check plugin projectmanager
2023-10-07 15:11:50,986 [INFO] PluginManage:359 - Loaded plugin projectmanager (category:projectmanager,tabindex:3)
2023-10-07 15:11:50,987 [INFO] PluginManage:310 - Check plugin thirdparty
2023-10-07 15:11:51,089 [INFO] PluginManage:359 - Loaded plugin thirdparty (category:base,tabindex:-1)
2023-10-07 15:11:51,089 [WARN] IntegrityCheckThread:84 - waiting for thirdparty lock release [integrity check]
2023-10-07 15:11:51,090 [INFO] PluginManage:310 - Check plugin tools
2023-10-07 15:11:51,090 [INFO] IntegrityCheckThread:86 - entering critical section [integrity check]
2023-10-07 15:11:51,093 [INFO] PluginManage:359 - Loaded plugin tools (category:base,tabindex:7)
2023-10-07 15:11:51,093 [INFO] PluginManage:310 - Check plugin tutovideos
2023-10-07 15:11:51,094 [INFO] ThirdPartyUpdaterWithRetryManager:70 - Updater plugin not ready yet. [1/15]
2023-10-07 15:11:51,249 [INFO] PluginManage:359 - Loaded plugin tutovideos (category:base,tabindex:-1)
2023-10-07 15:11:51,249 [INFO] PluginManage:310 - Check plugin updater
2023-10-07 15:11:51,265 [INFO] PluginManage:359 - Loaded plugin updater (category:base,tabindex:12)
2023-10-07 15:11:51,266 [INFO] PluginManage:283 - PluginManage : Loaded plugins [15]
2023-10-07 15:11:51,446 [INFO] PinOutPanel:1499 - setPackage(No Configuration,No Configuration)
2023-10-07 15:11:51,492 [INFO] CADModel:165 - CPN selected for project level
2023-10-07 15:11:51,493 [INFO] CADModel:114 - Register for checkConnection events
2023-10-07 15:11:51,503 [INFO] IPUIPlugin:80 - create IPUIPlugin
2023-10-07 15:11:51,503 [INFO] PluginManager:220 - loadIPPluginJar : add ts
2023-10-07 15:11:51,510 [INFO] IPUIPlugin:80 - create IPUIPlugin
2023-10-07 15:11:51,510 [INFO] PluginManager:220 - loadIPPluginJar : add fmc
2023-10-07 15:11:51,515 [INFO] IPUIPlugin:80 - create IPUIPlugin
2023-10-07 15:11:51,517 [INFO] PluginManager:220 - loadIPPluginJar : add plateformsettings
2023-10-07 15:11:51,521 [INFO] IPUIPlugin:80 - create IPUIPlugin
2023-10-07 15:11:51,521 [INFO] PluginManager:220 - loadIPPluginJar : add dma
2023-10-07 15:11:51,523 [INFO] IPUIPlugin:80 - create IPUIPlugin
2023-10-07 15:11:51,523 [INFO] PluginManager:220 - loadIPPluginJar : add i2s
2023-10-07 15:11:51,527 [INFO] IPUIPlugin:80 - create IPUIPlugin
2023-10-07 15:11:51,528 [INFO] PluginManager:220 - loadIPPluginJar : add mdma
2023-10-07 15:11:51,529 [INFO] IPUIPlugin:80 - create IPUIPlugin
2023-10-07 15:11:51,529 [INFO] PluginManager:220 - loadIPPluginJar : add gfxmmu
2023-10-07 15:11:51,530 [INFO] IPUIPlugin:80 - create IPUIPlugin
2023-10-07 15:11:51,530 [INFO] PluginManager:220 - loadIPPluginJar : add quadspi
2023-10-07 15:11:51,531 [INFO] IPUIPlugin:80 - create IPUIPlugin
2023-10-07 15:11:51,531 [INFO] PluginManager:220 - loadIPPluginJar : add ltdc
2023-10-07 15:11:51,532 [INFO] IPUIPlugin:80 - create IPUIPlugin
2023-10-07 15:11:51,532 [INFO] PluginManager:220 - loadIPPluginJar : add usart
2023-10-07 15:11:51,533 [INFO] IPUIPlugin:80 - create IPUIPlugin
2023-10-07 15:11:51,534 [INFO] PluginManager:220 - loadIPPluginJar : add cryp
2023-10-07 15:11:51,537 [INFO] IPUIPlugin:80 - create IPUIPlugin
2023-10-07 15:11:51,537 [INFO] PluginManager:220 - loadIPPluginJar : add adc
2023-10-07 15:11:51,538 [INFO] IPUIPlugin:80 - create IPUIPlugin
2023-10-07 15:11:51,538 [INFO] PluginManager:220 - loadIPPluginJar : add dfsdm
2023-10-07 15:11:51,540 [INFO] IPUIPlugin:80 - create IPUIPlugin
2023-10-07 15:11:51,540 [INFO] PluginManager:220 - loadIPPluginJar : add openamp
2023-10-07 15:11:51,541 [INFO] IPUIPlugin:80 - create IPUIPlugin
2023-10-07 15:11:51,542 [INFO] PluginManager:220 - loadIPPluginJar : add usbx
2023-10-07 15:11:51,543 [INFO] IPUIPlugin:80 - create IPUIPlugin
2023-10-07 15:11:51,543 [INFO] PluginManager:220 - loadIPPluginJar : add i2c
2023-10-07 15:11:51,544 [INFO] IPUIPlugin:80 - create IPUIPlugin
2023-10-07 15:11:51,545 [INFO] PluginManager:220 - loadIPPluginJar : add pdm2pcm
2023-10-07 15:11:51,546 [INFO] IPUIPlugin:80 - create IPUIPlugin
2023-10-07 15:11:51,546 [INFO] PluginManager:220 - loadIPPluginJar : add can
2023-10-07 15:11:51,547 [INFO] IPUIPlugin:80 - create IPUIPlugin
2023-10-07 15:11:51,547 [INFO] PluginManager:220 - loadIPPluginJar : add comp
2023-10-07 15:11:51,549 [INFO] IPUIPlugin:80 - create IPUIPlugin
2023-10-07 15:11:51,549 [INFO] PluginManager:220 - loadIPPluginJar : add gtzc
2023-10-07 15:11:51,549 [INFO] IPUIPlugin:80 - create IPUIPlugin
2023-10-07 15:11:51,549 [INFO] PluginManager:220 - loadIPPluginJar : add genericplugin
2023-10-07 15:11:51,552 [INFO] IPUIPlugin:80 - create IPUIPlugin
2023-10-07 15:11:51,552 [INFO] PluginManager:220 - loadIPPluginJar : add gic
2023-10-07 15:11:51,554 [INFO] IPUIPlugin:80 - create IPUIPlugin
2023-10-07 15:11:51,554 [INFO] PluginManager:220 - loadIPPluginJar : add i3c
2023-10-07 15:11:51,555 [INFO] IPUIPlugin:80 - create IPUIPlugin
2023-10-07 15:11:51,555 [INFO] PluginManager:220 - loadIPPluginJar : add hash
2023-10-07 15:11:51,558 [INFO] IPUIPlugin:80 - create IPUIPlugin
2023-10-07 15:11:51,558 [INFO] PluginManager:220 - loadIPPluginJar : add ipddr
2023-10-07 15:11:51,559 [INFO] IPUIPlugin:80 - create IPUIPlugin
2023-10-07 15:11:51,560 [INFO] PluginManager:220 - loadIPPluginJar : add touchsensing
2023-10-07 15:11:51,562 [INFO] IPUIPlugin:80 - create IPUIPlugin
2023-10-07 15:11:51,562 [INFO] PluginManager:220 - loadIPPluginJar : add gpio
2023-10-07 15:11:51,563 [INFO] IPUIPlugin:80 - create IPUIPlugin
2023-10-07 15:11:51,563 [INFO] PluginManager:220 - loadIPPluginJar : add spi
2023-10-07 15:11:51,567 [INFO] IPUIPlugin:80 - create IPUIPlugin
2023-10-07 15:11:51,567 [INFO] PluginManager:220 - loadIPPluginJar : add nvic
2023-10-07 15:11:51,568 [INFO] IPUIPlugin:80 - create IPUIPlugin
2023-10-07 15:11:51,569 [INFO] PluginManager:220 - loadIPPluginJar : add tsc
2023-10-07 15:11:51,630 [INFO] IPUIPlugin:80 - create IPUIPlugin
2023-10-07 15:11:51,630 [INFO] PluginManager:220 - loadIPPluginJar : add fatfs
2023-10-07 15:11:51,632 [INFO] IPUIPlugin:80 - create IPUIPlugin
2023-10-07 15:11:51,632 [INFO] PluginManager:220 - loadIPPluginJar : add dma3
2023-10-07 15:11:51,633 [INFO] IPUIPlugin:80 - create IPUIPlugin
2023-10-07 15:11:51,634 [INFO] PluginManager:220 - loadIPPluginJar : add tim
2023-10-07 15:11:51,638 [INFO] IPUIPlugin:80 - create IPUIPlugin
2023-10-07 15:11:51,638 [INFO] PluginManager:220 - loadIPPluginJar : add freertos
2023-10-07 15:11:51,640 [INFO] IPUIPlugin:80 - create IPUIPlugin
2023-10-07 15:11:51,640 [INFO] PluginManager:220 - loadIPPluginJar : add lorawan
2023-10-07 15:11:51,643 [INFO] IPUIPlugin:80 - create IPUIPlugin
2023-10-07 15:11:51,643 [INFO] PluginManager:220 - loadIPPluginJar : add stm32_wpan
2023-10-07 15:11:51,644 [INFO] IPUIPlugin:80 - create IPUIPlugin
2023-10-07 15:11:51,644 [INFO] PluginManager:220 - loadIPPluginJar : add ucpd
2023-10-07 15:11:51,646 [INFO] IPUIPlugin:80 - create IPUIPlugin
2023-10-07 15:11:51,646 [INFO] PluginManager:220 - loadIPPluginJar : add aes
2023-10-07 15:11:51,647 [INFO] IPUIPlugin:80 - create IPUIPlugin
2023-10-07 15:11:51,648 [INFO] PluginManager:220 - loadIPPluginJar : add opamp
2023-10-07 15:11:51,649 [INFO] IPUIPlugin:80 - create IPUIPlugin
2023-10-07 15:11:51,649 [INFO] PluginManager:220 - loadIPPluginJar : add tracer_emb
2023-10-07 15:11:51,655 [INFO] IPUIPlugin:80 - create IPUIPlugin
2023-10-07 15:11:51,655 [INFO] PluginManager:220 - loadIPPluginJar : add linkedlist
2023-10-07 15:11:51,657 [INFO] IPUIPlugin:80 - create IPUIPlugin
2023-10-07 15:11:51,657 [INFO] PluginManager:220 - loadIPPluginJar : add resmgrutility
2023-10-07 15:11:51,659 [INFO] IPUIPlugin:80 - create IPUIPlugin
2023-10-07 15:11:51,659 [INFO] PluginManager:220 - loadIPPluginJar : add sai
2023-10-07 15:11:51,669 [INFO] Updater:1056 - Updater Version found : 6.8.0
2023-10-07 15:11:51,683 [INFO] ApplicationProperties:184 - Using Application install path: /usr/local/STMicroelectronics/STM32Cube/STM32CubeMX
2023-10-07 15:11:51,829 [INFO] MainUpdater:2854 - connection check result : 10
2023-10-07 15:11:51,830 [INFO] MainUpdater:283 - Updater Check For Update Now.
2023-10-07 15:11:51,831 [INFO] MicroXplorer:498 - Change Database Version : DB.6.0.80
2023-10-07 15:11:51,931 [INFO] CADModel:165 - CPN selected for project level
2023-10-07 15:11:51,931 [INFO] CADModel:114 - Register for checkConnection events
2023-10-07 15:11:52,023 [INFO] CheckServerUpdateThread:120 - End of CheckServer Thread
2023-10-07 15:11:52,066 [INFO] CADModel:165 - CPN selected for project level
2023-10-07 15:11:52,066 [INFO] CADModel:114 - Register for checkConnection events
2023-10-07 15:11:52,128 [INFO] HomeAdPanel:103 - Auto-refresh data requested => check proxy status ongoing
2023-10-07 15:11:52,474 [INFO] ServerAccessManage:473 - Download File 
2023-10-07 15:11:52,476 [INFO] LoadUrlFilesThread:185 - End of LoadServerUrlFiles without Thread
2023-10-07 15:11:52,479 [INFO] DbMcusAds:53 - JSON generation date=Tue Mar 07 09:50:55 CET 2023 (1678179055335)
2023-10-07 15:11:52,480 [INFO] LoadUrlFilesThread:185 - End of LoadServerUrlFiles without Thread
2023-10-07 15:11:52,480 [INFO] HomeAdPanel:114 - Refresh advertisement image is successful
2023-10-07 15:11:52,501 [INFO] LoadUrlFilesThread:185 - End of LoadServerUrlFiles without Thread
2023-10-07 15:11:52,509 [INFO] DetailPanel:341 - Set advertising image to /home/matthias/STM32Cube/Repository//en.prom-stm32h5-mcu-finder.jpg
2023-10-07 15:11:52,776 [INFO] LoadUrlFilesThread:185 - End of LoadServerUrlFiles without Thread
2023-10-07 15:11:52,921 [INFO] LoadUrlFilesThread:185 - End of LoadServerUrlFiles without Thread
2023-10-07 15:11:52,921 [INFO] DetailPanel:341 - Set advertising image to /home/matthias/STM32Cube/Repository//en.prom-stm32h5-mcu-finder.jpg
2023-10-07 15:11:52,968 [INFO] MainFrame:183 - [MX] HOME_PANEL == 21725559648809
config load /home/matthias/Documents/BA/layer-benchmark-2/src/st/cube_templates/template_cube_ai_8_1_balanced/template_cube_ai_8_1_balanced.ioc
2023-10-07 15:11:52,986 [INFO] MicroXplorer:468 - Change Database Path : 
2023-10-07 15:11:52,986 [INFO] MicroXplorer:498 - Change Database Version : DB.6.0.80
2023-10-07 15:11:52,987 [WARN] ThirdParty:871 - waiting for thirdparty lock release [close project]
2023-10-07 15:11:54,194 [WARN] PackLoader:240 - Cannot read IP mode file for STMicroelectronics.X-CUBE-SMBUS.2.1.0
2023-10-07 15:11:54,219 [WARN] PackLoader:240 - Cannot read IP mode file for STMicroelectronics.X-CUBE-AZRTOS-F7.1.1.0
2023-10-07 15:11:54,231 [WARN] PackLoader:240 - Cannot read IP mode file for STMicroelectronics.FP-SNS-MOTENV1.4.3.2
2023-10-07 15:11:54,244 [WARN] PackLoader:240 - Cannot read IP mode file for STMicroelectronics.X-CUBE-BLE1.6.2.4
2023-10-07 15:11:54,251 [WARN] PackLoader:240 - Cannot read IP mode file for STMicroelectronics.FP-SNS-FLIGHT1.5.0.2
2023-10-07 15:11:54,262 [WARN] PackLoader:240 - Cannot read IP mode file for STMicroelectronics.X-CUBE-DISPLAY.3.0.0
2023-10-07 15:11:54,277 [WARN] PackLoader:240 - Cannot read IP mode file for STMicroelectronics.X-CUBE-BLE1.7.0.0
2023-10-07 15:11:54,285 [WARN] PackLoader:240 - Cannot read IP mode file for emotas.I-CUBE-CANOPEN.1.3.0
2023-10-07 15:11:54,290 [WARN] PackLoader:240 - Cannot read IP mode file for STMicroelectronics.X-CUBE-TOUCHGFX.4.22.0
2023-10-07 15:11:54,293 [WARN] PackLoader:240 - Cannot read IP mode file for STMicroelectronics.X-CUBE-TOUCHGFX.4.22.1
2023-10-07 15:11:54,299 [WARN] PackLoader:240 - Cannot read IP mode file for STMicroelectronics.FP-SNS-SMARTAG2.1.2.0
1 : Invalid condition id : UX_CORESTACK_Condition cause : null
1 : Invalid condition id : UX_CORESTACK_Condition cause : null
1 : Invalid condition id : UX_CORESTACK_Condition cause : null
1 : Invalid condition id : UX_CORESTACK_Condition cause : null
1 : Invalid condition id : UX_CORESTACK_Condition cause : null
2023-10-07 15:11:54,320 [WARN] PackLoader:240 - Cannot read IP mode file for STMicroelectronics.X-CUBE-AZRTOS-WL.2.0.0
2023-10-07 15:11:54,342 [WARN] PackLoader:240 - Cannot read IP mode file for WES.I-CUBE-Cesium.1.3.0
2023-10-07 15:11:54,347 [WARN] PackLoader:240 - Cannot read IP mode file for STMicroelectronics.X-CUBE-BLE2.3.3.0
2023-10-07 15:11:54,359 [WARN] PackLoader:240 - Cannot read IP mode file for STMicroelectronics.X-CUBE-TOF1.3.2.0
2023-10-07 15:11:54,370 [WARN] PackLoader:240 - Cannot read IP mode file for STMicroelectronics.X-CUBE-TOUCHGFX.4.21.1
2023-10-07 15:11:54,372 [WARN] PackLoader:240 - Cannot read IP mode file for STMicroelectronics.X-CUBE-TOUCHGFX.4.21.3
2023-10-07 15:11:54,406 [WARN] PackLoader:240 - Cannot read IP mode file for STMicroelectronics.X-CUBE-MEMS1.9.4.0
2023-10-07 15:11:54,514 [WARN] PackLoader:240 - Cannot read IP mode file for STMicroelectronics.X-CUBE-AI.7.3.0
2023-10-07 15:11:54,616 [WARN] PackLoader:240 - Cannot read IP mode file for STMicroelectronics.X-CUBE-ALGOBUILD.1.3.0
2023-10-07 15:11:54,637 [WARN] PackLoader:240 - Cannot read IP mode file for STMicroelectronics.X-CUBE-AZRTOS-G0.1.1.0
2023-10-07 15:11:54,644 [WARN] PackLoader:240 - Cannot read IP mode file for STMicroelectronics.X-CUBE-NFC4.3.0.0
2023-10-07 15:11:54,653 [WARN] PackLoader:240 - Cannot read IP mode file for STMicroelectronics.X-CUBE-BLEMGR.1.3.0
2023-10-07 15:11:54,658 [WARN] PackLoader:240 - Cannot read IP mode file for STMicroelectronics.FP-ATR-SIGFOX1.3.2.0
2023-10-07 15:11:54,713 [WARN] PackLoader:240 - Cannot read IP mode file for STMicroelectronics.X-CUBE-MEMS1.9.5.0
2023-10-07 15:11:54,864 [WARN] PackLoader:240 - Cannot read IP mode file for SEGGER.I-CUBE-embOS.1.3.1
2023-10-07 15:11:54,910 [WARN] PackLoader:240 - Cannot read IP mode file for STMicroelectronics.X-CUBE-GNSS1.6.0.0
2023-10-07 15:11:54,927 [WARN] PackLoader:240 - Cannot read IP mode file for STMicroelectronics.X-CUBE-AZRTOS-F4.1.1.0
2023-10-07 15:11:54,931 [WARN] PackLoader:240 - Cannot read IP mode file for wolfSSL.I-CUBE-wolfSSL.5.6.3
2023-10-07 15:11:54,934 [WARN] PackLoader:240 - Cannot read IP mode file for wolfSSL.I-CUBE-wolfSSL.5.6.0
2023-10-07 15:11:54,943 [WARN] PackLoader:240 - Cannot read IP mode file for STMicroelectronics.X-CUBE-AZRTOS-L5.2.0.0
2023-10-07 15:11:54,979 [WARN] PackLoader:240 - Cannot read IP mode file for STMicroelectronics.X-CUBE-MEMS1.9.6.0
2023-10-07 15:11:55,161 [WARN] PackLoader:240 - Cannot read IP mode file for ITTIA_DB.I-CUBE-ITTIADB.8.8.0
2023-10-07 15:11:55,167 [WARN] PackLoader:240 - Cannot read IP mode file for emotas.I-CUBE-CANOPEN.1.1.3
2023-10-07 15:11:55,174 [WARN] PackLoader:240 - Cannot read IP mode file for STMicroelectronics.X-CUBE-BLEMGR.2.0.0
2023-10-07 15:11:55,193 [WARN] ConditionMgr:438 - getConditionDescription Invalid condition id : UX DEVICE CLASS RTOS Condition cause : null
2023-10-07 15:11:55,194 [WARN] ConditionMgr:438 - getConditionDescription Invalid condition id : UX DEVICE CLASS RTOS Condition cause : null
2023-10-07 15:11:55,198 [WARN] PackLoader:240 - Cannot read IP mode file for STMicroelectronics.X-CUBE-AZRTOS-H7.3.1.0
2023-10-07 15:11:55,200 [WARN] ConditionMgr:1039 - genDependencies : Invalid condition id : UX DEVICE CLASS RTOS Condition cause : null
2023-10-07 15:11:55,200 [WARN] ConditionMgr:1039 - genDependencies : Invalid condition id : UX DEVICE CLASS RTOS Condition cause : null
2023-10-07 15:11:55,201 [WARN] ConditionMgr:1039 - genDependencies : Invalid condition id : UX DEVICE CLASS RTOS Condition cause : null
2023-10-07 15:11:55,201 [WARN] ConditionMgr:1039 - genDependencies : Invalid condition id : UX DEVICE CLASS RTOS Condition cause : null
2023-10-07 15:11:55,202 [WARN] ConditionMgr:1039 - genDependencies : Invalid condition id : UX DEVICE CLASS RTOS Condition cause : null
2023-10-07 15:11:55,206 [WARN] PackLoader:240 - Cannot read IP mode file for wolfSSL.I-CUBE-wolfSSL.5.5.4
2023-10-07 15:11:55,211 [WARN] PackLoader:240 - Cannot read IP mode file for STMicroelectronics.X-CUBE-NFC7.1.0.1
2023-10-07 15:11:55,216 [WARN] PackLoader:240 - Cannot read IP mode file for STMicroelectronics.X-CUBE-NFC7.1.0.0
2023-10-07 15:11:55,225 [WARN] PackLoader:240 - Cannot read IP mode file for STMicroelectronics.X-CUBE-NFC6.3.0.0
2023-10-07 15:11:55,233 [WARN] PackLoader:240 - Cannot read IP mode file for STMicroelectronics.X-CUBE-EEPRMA1.4.1.0
2023-10-07 15:11:55,237 [WARN] PackLoader:240 - Cannot read IP mode file for STMicroelectronics.X-CUBE-AI.8.1.0
2023-10-07 15:11:55,289 [WARN] ConditionMgr:438 - getConditionDescription Invalid condition id : LAN8742 Phy interface Condition cause : null
2023-10-07 15:11:55,289 [WARN] PackLoader:240 - Cannot read IP mode file for STMicroelectronics.X-CUBE-AZRTOS-L4.2.0.0
2023-10-07 15:11:55,291 [WARN] ConditionMgr:1039 - genDependencies : Invalid condition id : LAN8742 Phy interface Condition cause : null
2023-10-07 15:11:55,291 [WARN] ConditionMgr:1039 - genDependencies : Invalid condition id : LAN8742 Phy interface Condition cause : null
2023-10-07 15:11:55,292 [WARN] ConditionMgr:1039 - genDependencies : Invalid condition id : LAN8742 Phy interface Condition cause : null
2023-10-07 15:11:55,299 [WARN] PackLoader:240 - Cannot read IP mode file for STMicroelectronics.X-CUBE-SFXS2LP1.4.0.0
2023-10-07 15:11:55,319 [WARN] PackLoader:240 - Cannot read IP mode file for STMicroelectronics.X-CUBE-AZRTOS-H7.3.0.0
2023-10-07 15:11:55,325 [WARN] PackLoader:240 - Cannot read IP mode file for STMicroelectronics.X-CUBE-ISPU.1.1.0
2023-10-07 15:11:55,332 [WARN] PackLoader:240 - Cannot read IP mode file for RoweBots.I-CUBE-UNISONRTOS.5.5.0-4
2023-10-07 15:11:55,336 [WARN] PackLoader:240 - Cannot read IP mode file for STMicroelectronics.X-CUBE-AI.8.0.0
2023-10-07 15:11:55,374 [WARN] ConditionMgr:438 - getConditionDescription Invalid condition id : UX DEVICE CLASS RTOS Condition cause : null
2023-10-07 15:11:55,375 [WARN] ConditionMgr:438 - getConditionDescription Invalid condition id : UX DEVICE CLASS RTOS Condition cause : null
2023-10-07 15:11:55,377 [WARN] PackLoader:240 - Cannot read IP mode file for STMicroelectronics.X-CUBE-AZRTOS-WB.2.0.0
2023-10-07 15:11:55,377 [WARN] ConditionMgr:1039 - genDependencies : Invalid condition id : UX DEVICE CLASS RTOS Condition cause : null
2023-10-07 15:11:55,377 [WARN] ConditionMgr:1039 - genDependencies : Invalid condition id : UX DEVICE CLASS RTOS Condition cause : null
2023-10-07 15:11:55,378 [WARN] ConditionMgr:1039 - genDependencies : Invalid condition id : UX DEVICE CLASS RTOS Condition cause : null
2023-10-07 15:11:55,378 [WARN] ConditionMgr:1039 - genDependencies : Invalid condition id : UX DEVICE CLASS RTOS Condition cause : null
2023-10-07 15:11:55,379 [WARN] ConditionMgr:1039 - genDependencies : Invalid condition id : UX DEVICE CLASS RTOS Condition cause : null
2023-10-07 15:11:55,383 [WARN] PackLoader:240 - Cannot read IP mode file for STMicroelectronics.X-CUBE-FREERTOS.1.0.0
2023-10-07 15:11:55,387 [WARN] PackLoader:240 - Cannot read IP mode file for STMicroelectronics.X-CUBE-FREERTOS.1.0.1
2023-10-07 15:11:55,402 [WARN] PackLoader:240 - Cannot read IP mode file for STMicroelectronics.X-CUBE-AZRTOS-L5.1.1.0
2023-10-07 15:11:55,413 [WARN] PackLoader:240 - Cannot read IP mode file for STMicroelectronics.X-CUBE-SUBG2.5.0.0
2023-10-07 15:11:55,428 [WARN] PackLoader:240 - Cannot read IP mode file for STMicroelectronics.X-CUBE-TOF1.3.3.1
2023-10-07 15:11:55,449 [WARN] PackLoader:240 - Cannot read IP mode file for STMicroelectronics.X-CUBE-AZRTOS-G4.2.0.0
2023-10-07 15:11:55,460 [WARN] PackLoader:240 - Cannot read IP mode file for STMicroelectronics.X-CUBE-TOF1.3.3.0
2023-10-07 15:11:55,470 [WARN] PackLoader:240 - Cannot read IP mode file for STMicroelectronics.FP-ATR-ASTRA1.1.1.1
2023-10-07 15:11:55,482 [WARN] PackLoader:240 - Cannot read IP mode file for Infineon.AIROC-Wi-Fi-Bluetooth-STM32.1.5.1
2023-10-07 15:11:55,497 [WARN] PackLoader:240 - Cannot read IP mode file for STMicroelectronics.X-CUBE-AZRTOS-G4.1.0.0
2023-10-07 15:11:55,513 [WARN] PackLoader:240 - Cannot read IP mode file for STMicroelectronics.X-CUBE-AZRTOS-L4.1.0.0
2023-10-07 15:11:55,521 [WARN] PackLoader:240 - Cannot read IP mode file for STMicroelectronics.X-CUBE-FREERTOS.1.1.0
2023-10-07 15:11:55,546 [WARN] PackLoader:240 - Cannot read IP mode file for STMicroelectronics.X-CUBE-AZRTOS-WL.1.0.0
2023-10-07 15:11:55,551 [WARN] PackLoader:240 - Cannot read IP mode file for portGmbH.I-Cube-SoM-uGOAL.1.1.0
2023-10-07 15:11:55,555 [WARN] PackLoader:240 - Cannot read IP mode file for STMicroelectronics.X-CUBE-ALS.1.0.1
2023-10-07 15:11:55,567 [WARN] PackLoader:240 - Cannot read IP mode file for STMicroelectronics.X-CUBE-AZRTOS-WB.1.1.0
2023-10-07 15:11:55,572 [WARN] PackLoader:240 - Cannot read IP mode file for STMicroelectronics.FP-ATR-ASTRA1.2.0.0
2023-10-07 15:11:55,573 [INFO] ThirdParty:978 - Integrity check success = true
2023-10-07 15:11:55,574 [INFO] IntegrityCheckThread:100 - exiting critical section [integrity check]
2023-10-07 15:11:55,574 [INFO] IntegrityCheckThread:103 - End integrity checks thread
2023-10-07 15:11:55,575 [INFO] ThirdParty:873 - entering critical section [close project]
2023-10-07 15:11:55,576 [INFO] ThirdParty:883 - exiting critical section [close project]
2023-10-07 15:11:55,579 [INFO] PinOutPanel:1499 - setPackage(No Configuration,No Configuration)
2023-10-07 15:11:55,617 [INFO] UtilMem:75 - Begin LoadConfig() Used Memory: 97727584 Bytes (310378496)
2023-10-07 15:11:55,620 [INFO] MicroXplorer:468 - Change Database Path : 
2023-10-07 15:11:55,620 [INFO] MicroXplorer:498 - Change Database Version : DB.6.0.80
2023-10-07 15:11:55,620 [INFO] OpenFileManager:308 - Change cursor
2023-10-07 15:11:55,631 [INFO] ThirdPartyDownloadManager:73 - Found SW packSTMicroelectronics.X-CUBE-AI.8.1.0up-to-date on disk
2023-10-07 15:11:55,665 [INFO] Mcu:1937 - Initializing MCU STM32L4R5Z(G-I)Tx STM32L4R5ZITx STM32L4R5ZIT6
2023-10-07 15:11:57,133 [INFO] Context:659 - Trying to add GPIOservice into a context  which must be forbidden
2023-10-07 15:11:57,656 [INFO] ApiDbMcu:507 - Load IP Config File for STMicroelectronics.X-CUBE-AI.8.1.0
2023-10-07 15:11:58,028 [INFO] RtosManager:555 - Registered RTOS mode: class=CMSIS, group=RTOS, mode=CMSIS_V1, owner=FREERTOS
2023-10-07 15:11:58,028 [INFO] RtosManager:555 - Registered RTOS mode: class=CMSIS, group=RTOS2, mode=CMSIS_V2, owner=FREERTOS
2023-10-07 15:11:58,028 [INFO] RtosManager:555 - Registered RTOS mode: class=RTOS, group=Core, mode=CMSIS_V1, owner=FREERTOS
2023-10-07 15:11:58,028 [INFO] RtosManager:555 - Registered RTOS mode: class=RTOS, group=Core, mode=CMSIS_V2, owner=FREERTOS
2023-10-07 15:11:58,029 [WARN] ModelIntegratedComponent:184 - Missing modes for component STMicroelectronics:FreeRTOS:0.0.1:STMicroelectronics:RTOS:FreeRTOS:Core:::10.2.0:
2023-10-07 15:11:58,040 [WARN] ModelIntegratedComponent:63 - No mode defined for component null
2023-10-07 15:11:58,040 [WARN] ModelIntegratedComponent:63 - No mode defined for component null
2023-10-07 15:11:58,041 [WARN] ModelIntegratedComponent:63 - No mode defined for component null
2023-10-07 15:11:58,041 [WARN] ModelIntegratedComponent:63 - No mode defined for component null
2023-10-07 15:11:58,041 [WARN] ModelIntegratedComponent:63 - No mode defined for component null
2023-10-07 15:11:58,041 [WARN] ModelIntegratedComponent:63 - No mode defined for component null
2023-10-07 15:11:58,041 [WARN] ModelIntegratedComponent:63 - No mode defined for component null
2023-10-07 15:11:58,041 [WARN] ModelIntegratedComponent:63 - No mode defined for component null
2023-10-07 15:11:58,041 [WARN] ModelIntegratedComponent:63 - No mode defined for component null
2023-10-07 15:11:58,041 [WARN] ModelIntegratedComponent:63 - No mode defined for component null
2023-10-07 15:11:58,041 [WARN] ModelIntegratedComponent:63 - No mode defined for component null
2023-10-07 15:11:58,041 [WARN] ModelIntegratedComponent:63 - No mode defined for component null
2023-10-07 15:11:58,041 [WARN] ModelIntegratedComponent:63 - No mode defined for component null
2023-10-07 15:11:58,041 [WARN] ModelIntegratedComponent:63 - No mode defined for component null
2023-10-07 15:11:58,041 [WARN] ModelIntegratedComponent:63 - No mode defined for component null
2023-10-07 15:11:58,041 [WARN] ModelIntegratedComponent:63 - No mode defined for component null
2023-10-07 15:11:58,041 [WARN] ModelIntegratedComponent:63 - No mode defined for component null
2023-10-07 15:11:58,041 [WARN] ModelIntegratedComponent:63 - No mode defined for component null
2023-10-07 15:11:58,041 [WARN] ModelIntegratedComponent:63 - No mode defined for component null
2023-10-07 15:11:58,041 [WARN] ModelIntegratedComponent:63 - No mode defined for component null
2023-10-07 15:11:58,041 [WARN] ModelIntegratedComponent:63 - No mode defined for component null
2023-10-07 15:11:58,041 [WARN] ModelIntegratedComponent:63 - No mode defined for component null
2023-10-07 15:11:58,041 [WARN] ModelIntegratedComponent:63 - No mode defined for component null
2023-10-07 15:11:58,041 [WARN] ModelIntegratedComponent:63 - No mode defined for component null
2023-10-07 15:11:58,041 [WARN] ModelIntegratedComponent:63 - No mode defined for component null
2023-10-07 15:11:58,041 [WARN] ModelIntegratedComponent:63 - No mode defined for component null
2023-10-07 15:11:58,041 [WARN] ModelIntegratedComponent:63 - No mode defined for component null
2023-10-07 15:11:58,041 [WARN] ModelIntegratedComponent:63 - No mode defined for component null
2023-10-07 15:11:58,041 [WARN] ModelIntegratedComponent:63 - No mode defined for component null
2023-10-07 15:11:58,041 [WARN] ModelIntegratedComponent:63 - No mode defined for component null
2023-10-07 15:11:58,041 [WARN] ModelIntegratedComponent:63 - No mode defined for component null
2023-10-07 15:11:58,041 [WARN] ModelIntegratedComponent:63 - No mode defined for component null
2023-10-07 15:11:58,041 [WARN] ModelIntegratedComponent:63 - No mode defined for component null
2023-10-07 15:11:58,177 [INFO] IPUIPlugin:80 - create IPUIPlugin
2023-10-07 15:11:58,184 [INFO] PluginManager:220 - loadIPPluginJar : add ai.8.1.0
2023-10-07 15:11:58,842 [INFO] Middleware:617 - instanceName : STMicroelectronics.X-CUBE-AI.8.1.0 bspName : COM Port check condition success for : !SEMDeviceJjApplicationJjApplicationTemplate
2023-10-07 15:11:58,842 [INFO] Middleware:617 - instanceName : STMicroelectronics.X-CUBE-AI.8.1.0 bspName : COM Port check condition success for : !SEMDeviceJjApplicationJjApplicationTemplate
2023-10-07 15:11:58,842 [INFO] Middleware:617 - instanceName : STMicroelectronics.X-CUBE-AI.8.1.0 bspName : COM Port check condition success for : !SEMDeviceJjApplicationJjApplicationTemplate
2023-10-07 15:11:58,866 [INFO] ThirdPartyModel:298 - Start build external matchings
2023-10-07 15:11:59,507 [INFO] ThirdPartyModel:316 - End build external matchings
2023-10-07 15:11:59,528 [INFO] ImportTextPane:194 - (OptionalMessage_ERROR) IP (RCC) : Invalid parameter (48MHZClocksFreq_Value)
2023-10-07 15:11:59,528 [INFO] ImportTextPane:194 - (OptionalMessage_ERROR) IP (RCC) : Invalid parameter (ADC12outputFreq_Value)
2023-10-07 15:11:59,528 [INFO] ImportTextPane:194 - (OptionalMessage_ERROR) IP (RCC) : Invalid parameter (ADC34outputFreq_Value)
2023-10-07 15:11:59,529 [INFO] ImportTextPane:194 - (OptionalMessage_ERROR) IP (RCC) : Invalid parameter (DFSDM2Freq_Value)
2023-10-07 15:11:59,529 [INFO] ImportTextPane:194 - (OptionalMessage_ERROR) IP (RCC) : Invalid parameter (EthernetFreq_Value)
2023-10-07 15:11:59,529 [INFO] ImportTextPane:194 - (OptionalMessage_ERROR) IP (RCC) : Invalid parameter (FMPI2C1Freq_Value)
2023-10-07 15:11:59,529 [INFO] ImportTextPane:194 - (OptionalMessage_ERROR) IP (RCC) : Invalid parameter (FamilyName)
2023-10-07 15:11:59,529 [INFO] ImportTextPane:194 - (OptionalMessage_ERROR) IP (RCC) : Invalid parameter (I2S1Freq_Value)
2023-10-07 15:11:59,529 [INFO] ImportTextPane:194 - (OptionalMessage_ERROR) IP (RCC) : Invalid parameter (I2S2Freq_Value)
2023-10-07 15:11:59,529 [INFO] ImportTextPane:194 - (OptionalMessage_ERROR) IP (RCC) : Invalid parameter (I2SClocksFreq_Value)
2023-10-07 15:11:59,529 [INFO] ImportTextPane:194 - (OptionalMessage_ERROR) IP (RCC) : Invalid parameter (LPTimerFreq_Value)
2023-10-07 15:11:59,529 [INFO] ImportTextPane:194 - (OptionalMessage_ERROR) IP (RCC) : Invalid parameter (MCO2PinFreq_Value)
2023-10-07 15:11:59,529 [INFO] ImportTextPane:194 - (OptionalMessage_ERROR) IP (RCC) : Invalid parameter (MCOFreq_Value)
2023-10-07 15:11:59,529 [INFO] ImportTextPane:194 - (OptionalMessage_ERROR) IP (RCC) : Invalid parameter (PLLCLKFreq_Value)
2023-10-07 15:11:59,529 [INFO] ImportTextPane:194 - (OptionalMessage_ERROR) IP (RCC) : Parameter (PLLDSIVCOFreq_Value) has invalid value (320000000)
2023-10-07 15:11:59,529 [INFO] ImportTextPane:194 - (OptionalMessage_ERROR) IP (RCC) : Invalid parameter (PLLI2SPCLKFreq_Value)
2023-10-07 15:11:59,529 [INFO] ImportTextPane:194 - (OptionalMessage_ERROR) IP (RCC) : Invalid parameter (PLLI2SQCLKFreq_Value)
2023-10-07 15:11:59,529 [INFO] ImportTextPane:194 - (OptionalMessage_ERROR) IP (RCC) : Invalid parameter (PLLI2SQoutputFreq_Value)
2023-10-07 15:11:59,529 [INFO] ImportTextPane:194 - (OptionalMessage_ERROR) IP (RCC) : Invalid parameter (PLLI2SRCLKFreq_Value)
2023-10-07 15:11:59,529 [INFO] ImportTextPane:194 - (OptionalMessage_ERROR) IP (RCC) : Invalid parameter (PLLI2SoutputFreq_Value)
2023-10-07 15:11:59,529 [INFO] ImportTextPane:194 - (OptionalMessage_ERROR) IP (RCC) : Invalid parameter (PLLMCOFreq_Value)
2023-10-07 15:11:59,529 [INFO] ImportTextPane:194 - (OptionalMessage_ERROR) IP (RCC) : Invalid parameter (PLLMUL)
2023-10-07 15:11:59,530 [INFO] ImportTextPane:194 - (OptionalMessage_ERROR) IP (RCC) : Invalid parameter (PLLQCLKFreq_Value)
2023-10-07 15:11:59,530 [INFO] ImportTextPane:194 - (OptionalMessage_ERROR) IP (RCC) : Invalid parameter (PLLRoutputFreq_Value)
2023-10-07 15:11:59,531 [INFO] ImportTextPane:194 - (OptionalMessage_ERROR) IP (RCC) : Invalid parameter (PRESCALERUSB)
2023-10-07 15:11:59,531 [INFO] ImportTextPane:194 - (OptionalMessage_ERROR) IP (RCC) : Invalid parameter (RTCHSEDivFreq_Value)
2023-10-07 15:11:59,531 [INFO] ImportTextPane:194 - (OptionalMessage_ERROR) IP (RCC) : Invalid parameter (SAI1AFreq_Value)
2023-10-07 15:11:59,531 [INFO] ImportTextPane:194 - (OptionalMessage_ERROR) IP (RCC) : Invalid parameter (SAI1BFreq_Value)
2023-10-07 15:11:59,531 [INFO] ImportTextPane:194 - (OptionalMessage_ERROR) IP (RCC) : Invalid parameter (SDIOFreq_Value)
2023-10-07 15:11:59,531 [INFO] ImportTextPane:194 - (OptionalMessage_ERROR) IP (RCC) : Invalid parameter (SYSCLKSourceVirtual)
2023-10-07 15:11:59,531 [INFO] ImportTextPane:194 - (OptionalMessage_ERROR) IP (RCC) : Invalid parameter (TIM15Freq_Value)
2023-10-07 15:11:59,531 [INFO] ImportTextPane:194 - (OptionalMessage_ERROR) IP (RCC) : Invalid parameter (TIM16Freq_Value)
2023-10-07 15:11:59,531 [INFO] ImportTextPane:194 - (OptionalMessage_ERROR) IP (RCC) : Invalid parameter (TIM17Freq_Value)
2023-10-07 15:11:59,531 [INFO] ImportTextPane:194 - (OptionalMessage_ERROR) IP (RCC) : Invalid parameter (TIM1Freq_Value)
2023-10-07 15:11:59,531 [INFO] ImportTextPane:194 - (OptionalMessage_ERROR) IP (RCC) : Invalid parameter (TIM20Freq_Value)
2023-10-07 15:11:59,531 [INFO] ImportTextPane:194 - (OptionalMessage_ERROR) IP (RCC) : Invalid parameter (TIM2Freq_Value)
2023-10-07 15:11:59,531 [INFO] ImportTextPane:194 - (OptionalMessage_ERROR) IP (RCC) : Invalid parameter (TIM3Freq_Value)
2023-10-07 15:11:59,531 [INFO] ImportTextPane:194 - (OptionalMessage_ERROR) IP (RCC) : Invalid parameter (TIM8Freq_Value)
2023-10-07 15:11:59,531 [INFO] ImportTextPane:194 - (OptionalMessage_ERROR) IP (RCC) : Invalid parameter (VCOI2SInputFreq_Value)
2023-10-07 15:11:59,531 [INFO] ImportTextPane:194 - (OptionalMessage_ERROR) IP (RCC) : Invalid parameter (VCOI2SOutputFreq_Value)
2023-10-07 15:11:59,532 [INFO] ImportTextPane:194 - (OptionalMessage_ERROR) IP (RCC) : Invalid parameter (VCOInputMFreq_Value)
2023-10-07 15:11:59,532 [INFO] ImportTextPane:194 - (OptionalMessage_ERROR) IP (RCC) : Invalid parameter (VCOOutput2Freq_Value)
2023-10-07 15:11:59,532 [INFO] ImportTextPane:194 - (OptionalMessage_ERROR) IP (RCC) : Invalid parameter (VcooutputI2S)
2023-10-07 15:11:59,532 [INFO] ImportTextPane:194 - (OptionalMessage_ERROR) IP (STMicroelectronics.X-CUBE-AI.8.1.0) : Parameter (ModelName) has Id (b03de02572e6d76d990d09daf47c80088d2fa1b3404b28ee04e8080a077bbdb4) currently not set
2023-10-07 15:11:59,533 [INFO] ImportTextPane:194 - (OptionalMessage_ERROR) IP (STMicroelectronics.X-CUBE-AI.8.1.0) : Parameter (ModelType) has Id (b03de02572e6d76d990d09daf47c80088d2fa1b3404b28ee04e8080a077bbdb4) currently not set
2023-10-07 15:11:59,533 [INFO] ImportTextPane:194 - (OptionalMessage_ERROR) IP (STMicroelectronics.X-CUBE-AI.8.1.0) : Parameter (ModelKind) has Id (b03de02572e6d76d990d09daf47c80088d2fa1b3404b28ee04e8080a077bbdb4) currently not set
2023-10-07 15:11:59,533 [INFO] ImportTextPane:194 - (OptionalMessage_ERROR) IP (STMicroelectronics.X-CUBE-AI.8.1.0) : Parameter (ModelCompression) has Id (b03de02572e6d76d990d09daf47c80088d2fa1b3404b28ee04e8080a077bbdb4) currently not set
2023-10-07 15:11:59,533 [INFO] ImportTextPane:194 - (OptionalMessage_ERROR) IP (STMicroelectronics.X-CUBE-AI.8.1.0) : Invalid parameter (LatestDirectoryUsed)
2023-10-07 15:11:59,533 [INFO] ImportTextPane:194 - (OptionalMessage_ERROR) IP (STMicroelectronics.X-CUBE-AI.8.1.0) : Parameter (ModelStructureFile) has Id (b03de02572e6d76d990d09daf47c80088d2fa1b3404b28ee04e8080a077bbdb4) currently not set
2023-10-07 15:11:59,533 [INFO] ImportTextPane:194 - (OptionalMessage_ERROR) IP (STMicroelectronics.X-CUBE-AI.8.1.0) : Parameter (ModelMacc) has Id (b03de02572e6d76d990d09daf47c80088d2fa1b3404b28ee04e8080a077bbdb4) currently not set
2023-10-07 15:11:59,533 [INFO] ImportTextPane:194 - (OptionalMessage_ERROR) IP (STMicroelectronics.X-CUBE-AI.8.1.0) : Parameter (ModelActualCompression) has Id (b03de02572e6d76d990d09daf47c80088d2fa1b3404b28ee04e8080a077bbdb4) currently not set
2023-10-07 15:11:59,533 [INFO] ImportTextPane:194 - (OptionalMessage_ERROR) IP (STMicroelectronics.X-CUBE-AI.8.1.0) : Parameter (ModelRamOccupation) has Id (b03de02572e6d76d990d09daf47c80088d2fa1b3404b28ee04e8080a077bbdb4) currently not set
2023-10-07 15:11:59,533 [INFO] ImportTextPane:194 - (OptionalMessage_ERROR) IP (STMicroelectronics.X-CUBE-AI.8.1.0) : Parameter (ModelFlashOccupation) has Id (b03de02572e6d76d990d09daf47c80088d2fa1b3404b28ee04e8080a077bbdb4) currently not set
2023-10-07 15:11:59,533 [INFO] ImportTextPane:194 - (OptionalMessage_ERROR) IP (STMicroelectronics.X-CUBE-AI.8.1.0) : Invalid parameter (useInputAllocation)
2023-10-07 15:11:59,533 [INFO] ImportTextPane:194 - (OptionalMessage_ERROR) IP (STMicroelectronics.X-CUBE-AI.8.1.0) : Invalid parameter (useOutputAllocation)
2023-10-07 15:11:59,533 [INFO] ImportTextPane:194 - (OptionalMessage_ERROR) IP (STMicroelectronics.X-CUBE-AI.8.1.0) : Invalid parameter (customLayerConfigEnabled)
2023-10-07 15:11:59,533 [INFO] ImportTextPane:194 - (OptionalMessage_ERROR) IP (STMicroelectronics.X-CUBE-AI.8.1.0) : Invalid parameter (noOnnxIoTranspose)
2023-10-07 15:11:59,533 [INFO] ImportTextPane:194 - (OptionalMessage_ERROR) IP (STMicroelectronics.X-CUBE-AI.8.1.0) : Invalid parameter (MaximumNumberOfInputLayer)
2023-10-07 15:11:59,533 [INFO] ImportTextPane:194 - (OptionalMessage_ERROR) IP (STMicroelectronics.X-CUBE-AI.8.1.0) : Invalid parameter (MaximumNumberOfOutputLayer)
2023-10-07 15:11:59,843 [INFO] UtilMem:75 - End LoadConfig() Used Memory: 247313632 Bytes (548405248)
2023-10-07 15:12:00,042 [INFO] ApiDb:581 - Connected to CubeFinder SQLite database (/home/matthias/.stmcufinder/plugins/mcufinder/mcu/cube-finder-db.db)
2023-10-07 15:12:00,099 [INFO] ApiDb:668 - CubeFinder database Data Model version=2.1
2023-10-07 15:12:00,100 [INFO] ApiDb:669 - CubeFinder database Configuration version=3.0.37
2023-10-07 15:12:00,100 [INFO] ApiDb:670 - CubeFinder database generation date=2023-08-31 (1693470701)
2023-10-07 15:12:00,101 [INFO] ApiDb:671 - CubeFinder database FW Pack versions=[FP-ATR-ASTRA1_V2.0.0, FP-SNS-FLIGHT1_V5.0.1, FP-SNS-FLIGHT1_V5.0.2, FP-SNS-MOTENV1_V4.3.1, FP-SNS-MOTENV1_V4.3.2, STM32Cube_FW_C0_V1.1.0, STM32Cube_FW_F4_V1.27.1, STM32Cube_FW_F7_V1.17.0, STM32Cube_FW_G0_V1.6.1, STM32Cube_FW_G4_V1.5.1, STM32Cube_FW_H5_V0.5.1, STM32Cube_FW_H5_V1.1.1, STM32Cube_FW_H7_V1.11.0, STM32Cube_FW_L0_V1.12.2, STM32Cube_FW_L5_V1.5.0, STM32Cube_FW_U5_V1.3.0, STM32Cube_FW_U5_V1.3.0RC4, STM32Cube_FW_WBA_V1.0.0RC1, STM32Cube_FW_WBA_V1.1.0, STM32Cube_FW_WBA_V1.1.0RC1, STM32Cube_FW_WB_V1.15.0RC1, STM32Cube_FW_WB_V1.16.0, STM32Cube_FW_WB_V1.16.0RC2, STM32Cube_FW_WB_V1.17.0, STM32Cube_FW_WB_V1.17.2, STM32Cube_FW_WL_V1.3.0, X-CUBE-ALGOBUILD_V1.3.0, X-CUBE-ALS_V1.0.1, X-CUBE-AZRTOS-F4_V1.1.0, X-CUBE-AZRTOS-F7_V1.1.0, X-CUBE-AZRTOS-G0_V1.1.0, X-CUBE-AZRTOS-G4_V2.0.0, X-CUBE-AZRTOS-H7_V3.1.0, X-CUBE-AZRTOS-L4_V1.0.0, X-CUBE-AZRTOS-L4_V2.0.0, X-CUBE-AZRTOS-L5_V1.1.0, X-CUBE-AZRTOS-WB_V2.0.0, X-CUBE-AZRTOS-WL_V2.0.0, X-CUBE-BLE1_V7.0.0, X-CUBE-BLE2_V3.3.0, X-CUBE-BLEMGR_V2.0.0, X-CUBE-EEPRMA1_V4.1.0, X-CUBE-FREERTOS_V1.1.0, X-CUBE-GNSS1_V6.0.0, X-CUBE-MEMS1_V9.1.0, X-CUBE-MEMS1_V9.4.0, X-CUBE-MEMS1_V9.6.0, X-CUBE-NFC4_V3.0.0, X-CUBE-NFC7_V1.0.0, X-CUBE-SFXS2LP1_V4.0.0, X-CUBE-SUBG2_V5.0.0, X-CUBE-TOF1_V3.3.1]
2023-10-07 15:12:01,889 [INFO] ApiDb:240 - Found 297 in-development CPN: [B-G473E-ZEST1S, B-WB1M-WPAN1, B-WL5M-SUBG1, NUCLEO-C031C6, NUCLEO-H503RB, NUCLEO-H563ZI, NUCLEO-U545RE-Q, NUCLEO-U5A5ZJ-Q, NUCLEO-WBA52CG, STEVAL-PROTEUS1, STEVAL-STWINBX1, STM320518-EVAL, STM32C0116-DK, STM32C011D6Y3TR, STM32C011D6Y6TR, STM32C011F4P3, STM32C011F4P6, STM32C011F4U3, STM32C011F4U6TR, STM32C011F6P3, STM32C011F6P6, STM32C011F6U3, STM32C011F6U6TR, STM32C011J4M3, STM32C011J4M6, STM32C011J6M3, STM32C011J6M6, STM32C0316-DK, STM32C031C4T3, STM32C031C4T6, STM32C031C4U3, STM32C031C4U6, STM32C031C6T3, STM32C031C6T6, STM32C031C6U3, STM32C031C6U6, STM32C031F4P3, STM32C031F4P6, STM32C031F6P3, STM32C031F6P6, STM32C031G4U3, STM32C031G4U6, STM32C031G6U3, STM32C031G6U6, STM32C031K4T3, STM32C031K4T6, STM32C031K4U3, STM32C031K4U6, STM32C031K6T3, STM32C031K6T6, STM32C031K6U3, STM32C031K6U6, STM32G071K8TXN, STM32G071K8UXN, STM32G081GBU6N, STM32G081KBT6N, STM32G081KBUXN, STM32G0B1CCT6N, STM32G0B1KCT6, STM32G0B1NEY6TR, STM32G0B1RCT6N, STM32G0C1CCT6, STM32G0C1CCT6N, STM32G0C1CCU6N, STM32G0C1CET6N, STM32G0C1CEU6N, STM32G0C1KCT6, STM32G0C1NEY6TR, STM32G0C1RCI6N, STM32G0C1RCT6N, STM32G0C1REI6N, STM32G0C1RET6N, STM32G0C1VCI6, STM32G0C1VEI6, STM32G471CCT6, STM32G471CCU6, STM32G471CET3, STM32G471CET6, STM32G471CEU3, STM32G471CEU6, STM32G471MCT6, STM32G471MET3, STM32G471MET6, STM32G471MEY6TR, STM32G471QCT6, STM32G471QET3, STM32G471RCT6, STM32G471RET3, STM32G471RET6, STM32G471VCH6, STM32G471VCI6, STM32G471VCT6, STM32G471VEH3, STM32G471VEH6, STM32G471VEI3, STM32G471VEI6, STM32G471VET3, STM32G471VET6, STM32G474CCT6, STM32H503CBT6, STM32H503CBU6, STM32H503EBY6TR, STM32H503KBU6, STM32H503RBT6, STM32H562AGI6, STM32H562AII6, STM32H562IGK6, STM32H562IGT6, STM32H562IIK6, STM32H562IIT6, STM32H562RGT6, STM32H562RGV6, STM32H562RIT6, STM32H562RIV6, STM32H562VGT6, STM32H562VIT6, STM32H562ZGT6, STM32H562ZIT6, STM32H563AGI6, STM32H563AII3Q, STM32H563AII6, STM32H563IGK6, STM32H563IGT6, STM32H563IIK3Q, STM32H563IIK6, STM32H563IIT3Q, STM32H563IIT6, STM32H563MIY3QTR, STM32H563RGT6, STM32H563RGV6, STM32H563RIT6, STM32H563RIV6, STM32H563VGT6, STM32H563VIT3Q, STM32H563VIT6, STM32H563ZGT6, STM32H563ZIT3Q, STM32H563ZIT6, STM32H573AII3Q, STM32H573AII6, STM32H573I-DK, STM32H573IIK3Q, STM32H573IIK6, STM32H573IIT3Q, STM32H573IIT6, STM32H573MIY3QTR, STM32H573RIT6, STM32H573RIV6, STM32H573VIT3Q, STM32H573VIT6, STM32H573ZIT3Q, STM32H573ZIT6, STM32L4R5QGI6STR, STM32MP131AAE3, STM32MP131AAF3, STM32MP131AAG3, STM32MP131CAE3, STM32MP131CAF3, STM32MP131CAG3, STM32MP131DAE7, STM32MP131DAF7, STM32MP131DAG7, STM32MP131FAE7, STM32MP131FAF7, STM32MP131FAG7, STM32MP133AAE3, STM32MP133AAF3, STM32MP133AAG3, STM32MP133CAE3, STM32MP133CAF3, STM32MP133CAG3, STM32MP133DAE7, STM32MP133DAF7, STM32MP133DAG7, STM32MP133FAE7, STM32MP133FAF7, STM32MP133FAG7, STM32MP135AAE3, STM32MP135AAF3, STM32MP135AAG3, STM32MP135CAE3, STM32MP135CAF3, STM32MP135CAG3, STM32MP135DAE7, STM32MP135DAF7, STM32MP135DAG7, STM32MP135F-DK, STM32MP135FAE7, STM32MP135FAF7, STM32MP135FAF7T, STM32MP135FAF7U, STM32MP135FAG7, STM32U535CBT6, STM32U535CBT6Q, STM32U535CBU6, STM32U535CBU6Q, STM32U535CCT6, STM32U535CCT6Q, STM32U535CCU6, STM32U535CCU6Q, STM32U535CET6, STM32U535CET6Q, STM32U535CEU6, STM32U535CEU6Q, STM32U535JEY6QTR, STM32U535NCY6QTR, STM32U535NEY6QTR, STM32U535RBI6, STM32U535RBI6Q, STM32U535RBT6, STM32U535RBT6Q, STM32U535RCI6, STM32U535RCI6Q, STM32U535RCT6, STM32U535RCT6Q, STM32U535REI6, STM32U535REI6Q, STM32U535RET6, STM32U535RET6Q, STM32U535VCI6, STM32U535VCI6Q, STM32U535VCT6, STM32U535VCT6Q, STM32U535VEI6, STM32U535VEI6Q, STM32U535VET6, STM32U535VET6Q, STM32U545CET6, STM32U545CET6Q, STM32U545CEU6, STM32U545CEU6Q, STM32U545JEY6QTR, STM32U545NEY6QTR, STM32U545REI6, STM32U545REI6Q, STM32U545RET6, STM32U545RET6Q, STM32U545VEI6, STM32U545VEI6Q, STM32U545VET6, STM32U545VET6Q, STM32U595AIH6, STM32U595AIH6Q, STM32U595AJH6, STM32U595AJH6Q, STM32U595QII6, STM32U595QII6Q, STM32U595QJI6, STM32U595QJI6Q, STM32U595RIT6, STM32U595RIT6Q, STM32U595RJT6, STM32U595RJT6Q, STM32U595VIT6, STM32U595VIT6Q, STM32U595VJT6, STM32U595VJT6Q, STM32U595ZIT6, STM32U595ZIT6Q, STM32U595ZIY6QTR, STM32U595ZJT6, STM32U595ZJT6Q, STM32U595ZJY6QTR, STM32U599BJY6QTR, STM32U599NIH6Q, STM32U599NJH6Q, STM32U599VIT6Q, STM32U599VJT6, STM32U599VJT6Q, STM32U599ZIT6Q, STM32U599ZIY6QTR, STM32U599ZJT6Q, STM32U599ZJY6QTR, STM32U5A5AJH6, STM32U5A5AJH6Q, STM32U5A5QJI6, STM32U5A5QJI6Q, STM32U5A5RJT6, STM32U5A5RJT6Q, STM32U5A5VJT6, STM32U5A5VJT6Q, STM32U5A5ZJT6, STM32U5A5ZJT6Q, STM32U5A5ZJY6QTR, STM32U5A9BJY6QTR, STM32U5A9J-DK, STM32U5A9NJH6Q, STM32U5A9VJT6Q, STM32U5A9ZJT6Q, STM32U5A9ZJY6QTR, STM32WB1MMCH6, STM32WBA52CEU6, STM32WBA52CEU6T, STM32WBA52CGU6, STM32WBA52CGU6T, STM32WL5MOCH6, STM32WL5MOCH6TR]
2023-10-07 15:12:01,893 [INFO] DbMcus:216 - Found 3825 MCUs, 3825 are supported
2023-10-07 15:12:01,893 [INFO] ApiDb:423 - Load user favorites file /home/matthias/.stm32cubemx/favorites.mcus.txt: 0 item(s)
2023-10-07 15:12:01,893 [INFO] ApiDb:427 - User favorites MCUs=[]
2023-10-07 15:12:01,894 [INFO] DbMcus:222 - Set 0 / 0 favorites MCUs
2023-10-07 15:12:02,254 [WARN] ThirdParty:833 - waiting for thirdparty lock release [change project]
2023-10-07 15:12:02,254 [INFO] ThirdParty:835 - entering critical section [change project]
2023-10-07 15:12:02,254 [INFO] ThirdParty:1030 - CMSIS Pack Vendor :STMicroelectronics X-CUBE-ISPU 1.1.0
2023-10-07 15:12:02,254 [INFO] ThirdParty:1030 - CMSIS Pack Vendor :RoweBots I-CUBE-UNISONRTOS 5.5.0-4
2023-10-07 15:12:02,254 [INFO] ThirdParty:1030 - CMSIS Pack Vendor :STMicroelectronics X-CUBE-GNSS1 6.0.0
2023-10-07 15:12:02,254 [INFO] ThirdParty:1030 - CMSIS Pack Vendor :STMicroelectronics USB_HOST 2.0.0
2023-10-07 15:12:02,254 [INFO] ThirdParty:1030 - CMSIS Pack Vendor :STMicroelectronics X-CUBE-AZRTOS-F4 1.1.0
2023-10-07 15:12:02,254 [INFO] ThirdParty:1030 - CMSIS Pack Vendor :STMicroelectronics LIBJPEG 8.0.0
2023-10-07 15:12:02,254 [INFO] ThirdParty:1030 - CMSIS Pack Vendor :wolfSSL I-CUBE-wolfSSL 5.6.3
2023-10-07 15:12:02,254 [INFO] ThirdParty:1030 - CMSIS Pack Vendor :STMicroelectronics X-CUBE-SMBUS 2.1.0
2023-10-07 15:12:02,254 [INFO] ThirdParty:1030 - CMSIS Pack Vendor :wolfSSL I-CUBE-wolfSSL 5.6.0
2023-10-07 15:12:02,254 [INFO] ThirdParty:1030 - CMSIS Pack Vendor :STMicroelectronics USB_DEVICE 3.0.0
2023-10-07 15:12:02,254 [INFO] ThirdParty:1030 - CMSIS Pack Vendor :STMicroelectronics X-CUBE-AI 8.0.0
2023-10-07 15:12:02,254 [INFO] ThirdParty:1030 - CMSIS Pack Vendor :STMicroelectronics X-CUBE-AZRTOS-WB 2.0.0
2023-10-07 15:12:02,254 [INFO] ThirdParty:1030 - CMSIS Pack Vendor :STMicroelectronics X-CUBE-FREERTOS 1.0.0
2023-10-07 15:12:02,254 [INFO] ThirdParty:1030 - CMSIS Pack Vendor :STMicroelectronics X-CUBE-FREERTOS 1.0.1
2023-10-07 15:12:02,254 [INFO] ThirdParty:1030 - CMSIS Pack Vendor :STMicroelectronics X-CUBE-TOUCHGFX 4.21.1
2023-10-07 15:12:02,254 [INFO] ThirdParty:1030 - CMSIS Pack Vendor :STMicroelectronics X-CUBE-TOUCHGFX 4.21.3
2023-10-07 15:12:02,254 [INFO] ThirdParty:1030 - CMSIS Pack Vendor :STMicroelectronics X-CUBE-AZRTOS-F7 1.1.0
2023-10-07 15:12:02,255 [INFO] ThirdParty:1030 - CMSIS Pack Vendor :STMicroelectronics X-CUBE-AZRTOS-L5 2.0.0
2023-10-07 15:12:02,255 [INFO] ThirdParty:1030 - CMSIS Pack Vendor :STMicroelectronics X-CUBE-MEMS1 9.4.0
2023-10-07 15:12:02,255 [INFO] ThirdParty:1030 - CMSIS Pack Vendor :STMicroelectronics USB_DEVICE 2.0.0
2023-10-07 15:12:02,255 [INFO] ThirdParty:1030 - CMSIS Pack Vendor :STMicroelectronics X-CUBE-AI 7.3.0
2023-10-07 15:12:02,255 [INFO] ThirdParty:1030 - CMSIS Pack Vendor :STMicroelectronics X-CUBE-MEMS1 9.6.0
2023-10-07 15:12:02,255 [INFO] ThirdParty:1030 - CMSIS Pack Vendor :ITTIA_DB I-CUBE-ITTIADB 8.8.0
2023-10-07 15:12:02,255 [INFO] ThirdParty:1030 - CMSIS Pack Vendor :STMicroelectronics FP-SNS-MOTENV1 4.3.2
2023-10-07 15:12:02,255 [INFO] ThirdParty:1030 - CMSIS Pack Vendor :STMicroelectronics X-CUBE-ALGOBUILD 1.3.0
2023-10-07 15:12:02,255 [INFO] ThirdParty:1030 - CMSIS Pack Vendor :STMicroelectronics X-CUBE-BLE1 6.2.4
2023-10-07 15:12:02,255 [INFO] ThirdParty:1030 - CMSIS Pack Vendor :STMicroelectronics X-CUBE-AZRTOS-L5 1.1.0
2023-10-07 15:12:02,255 [INFO] ThirdParty:1030 - CMSIS Pack Vendor :STMicroelectronics FreeRTOS 0.0.1
2023-10-07 15:12:02,255 [INFO] ThirdParty:1030 - CMSIS Pack Vendor :STMicroelectronics X-CUBE-AZRTOS-G0 1.1.0
2023-10-07 15:12:02,255 [INFO] ThirdParty:1030 - CMSIS Pack Vendor :emotas I-CUBE-CANOPEN 1.1.3
2023-10-07 15:12:02,255 [INFO] ThirdParty:1030 - CMSIS Pack Vendor :STMicroelectronics X-CUBE-BLEMGR 2.0.0
2023-10-07 15:12:02,255 [INFO] ThirdParty:1030 - CMSIS Pack Vendor :STMicroelectronics X-CUBE-NFC4 3.0.0
2023-10-07 15:12:02,255 [INFO] ThirdParty:1030 - CMSIS Pack Vendor :STMicroelectronics X-CUBE-SUBG2 5.0.0
2023-10-07 15:12:02,255 [INFO] ThirdParty:1030 - CMSIS Pack Vendor :STMicroelectronics STM32_WPAN 1.0.0
2023-10-07 15:12:02,255 [INFO] ThirdParty:1030 - CMSIS Pack Vendor :STMicroelectronics lwIP 2.0.3
2023-10-07 15:12:02,255 [INFO] ThirdParty:1030 - CMSIS Pack Vendor :STMicroelectronics FP-SNS-FLIGHT1 5.0.2
2023-10-07 15:12:02,255 [INFO] ThirdParty:1030 - CMSIS Pack Vendor :STMicroelectronics USB_HOST 1.0.0
2023-10-07 15:12:02,255 [INFO] ThirdParty:1030 - CMSIS Pack Vendor :STMicroelectronics X-CUBE-TOF1 3.3.1
2023-10-07 15:12:02,255 [INFO] ThirdParty:1030 - CMSIS Pack Vendor :STMicroelectronics X-CUBE-AZRTOS-G4 2.0.0
2023-10-07 15:12:02,255 [INFO] ThirdParty:1030 - CMSIS Pack Vendor :STMicroelectronics PDM2PCM 3.1.0
2023-10-07 15:12:02,255 [INFO] ThirdParty:1030 - CMSIS Pack Vendor :STMicroelectronics X-CUBE-AZRTOS-H7 3.1.0
2023-10-07 15:12:02,255 [INFO] ThirdParty:1030 - CMSIS Pack Vendor :STMicroelectronics X-CUBE-TOF1 3.3.0
2023-10-07 15:12:02,255 [INFO] ThirdParty:1030 - CMSIS Pack Vendor :STMicroelectronics FP-ATR-ASTRA1 1.1.1
2023-10-07 15:12:02,255 [INFO] ThirdParty:1030 - CMSIS Pack Vendor :Infineon AIROC-Wi-Fi-Bluetooth-STM32 1.5.1
2023-10-07 15:12:02,255 [INFO] ThirdParty:1030 - CMSIS Pack Vendor :STMicroelectronics PDM2PCM 3.3.0
2023-10-07 15:12:02,255 [INFO] ThirdParty:1030 - CMSIS Pack Vendor :STMicroelectronics X-CUBE-DISPLAY 3.0.0
2023-10-07 15:12:02,255 [INFO] ThirdParty:1030 - CMSIS Pack Vendor :STMicroelectronics X-CUBE-BLEMGR 1.3.0
2023-10-07 15:12:02,255 [INFO] ThirdParty:1030 - CMSIS Pack Vendor :STMicroelectronics X-CUBE-BLE1 7.0.0
2023-10-07 15:12:02,255 [INFO] ThirdParty:1030 - CMSIS Pack Vendor :STMicroelectronics FP-ATR-SIGFOX1 3.2.0
2023-10-07 15:12:02,255 [INFO] ThirdParty:1030 - CMSIS Pack Vendor :STMicroelectronics X-CUBE-AZRTOS-G4 1.0.0
2023-10-07 15:12:02,255 [INFO] ThirdParty:1030 - CMSIS Pack Vendor :wolfSSL I-CUBE-wolfSSL 5.5.4
2023-10-07 15:12:02,255 [INFO] ThirdParty:1030 - CMSIS Pack Vendor :STMicroelectronics X-CUBE-AZRTOS-L4 1.0.0
2023-10-07 15:12:02,255 [INFO] ThirdParty:1030 - CMSIS Pack Vendor :STMicroelectronics HAL Drivers 0.0.0
2023-10-07 15:12:02,255 [INFO] ThirdParty:1030 - CMSIS Pack Vendor :STMicroelectronics MBEDTLS 2.16.2
2023-10-07 15:12:02,255 [INFO] ThirdParty:1030 - CMSIS Pack Vendor :emotas I-CUBE-CANOPEN 1.3.0
2023-10-07 15:12:02,255 [INFO] ThirdParty:1030 - CMSIS Pack Vendor :STMicroelectronics X-CUBE-FREERTOS 1.1.0
2023-10-07 15:12:02,255 [INFO] ThirdParty:1030 - CMSIS Pack Vendor :STMicroelectronics X-CUBE-TOUCHGFX 4.22.0
2023-10-07 15:12:02,255 [INFO] ThirdParty:1030 - CMSIS Pack Vendor :STMicroelectronics X-CUBE-NFC7 1.0.1
2023-10-07 15:12:02,255 [INFO] ThirdParty:1030 - CMSIS Pack Vendor :STMicroelectronics MBEDTLS 2.14.1
2023-10-07 15:12:02,255 [INFO] ThirdParty:1030 - CMSIS Pack Vendor :STMicroelectronics X-CUBE-NFC7 1.0.0
2023-10-07 15:12:02,255 [INFO] ThirdParty:1030 - CMSIS Pack Vendor :STMicroelectronics X-CUBE-TOUCHGFX 4.22.1
2023-10-07 15:12:02,255 [INFO] ThirdParty:1030 - CMSIS Pack Vendor :STMicroelectronics X-CUBE-AZRTOS-WL 1.0.0
2023-10-07 15:12:02,255 [INFO] ThirdParty:1030 - CMSIS Pack Vendor :STMicroelectronics X-CUBE-NFC6 3.0.0
2023-10-07 15:12:02,256 [INFO] ThirdParty:1030 - CMSIS Pack Vendor :STMicroelectronics X-CUBE-EEPRMA1 4.1.0
2023-10-07 15:12:02,256 [INFO] ThirdParty:1030 - CMSIS Pack Vendor :portGmbH I-Cube-SoM-uGOAL 1.1.0
2023-10-07 15:12:02,256 [INFO] ThirdParty:1030 - CMSIS Pack Vendor :STMicroelectronics X-CUBE-ALS 1.0.1
2023-10-07 15:12:02,256 [INFO] ThirdParty:1030 - CMSIS Pack Vendor :STMicroelectronics X-CUBE-MEMS1 9.5.0
2023-10-07 15:12:02,256 [INFO] ThirdParty:1030 - CMSIS Pack Vendor :STMicroelectronics ThreadX 1.0.0
2023-10-07 15:12:02,256 [INFO] ThirdParty:1030 - CMSIS Pack Vendor :STMicroelectronics FP-SNS-SMARTAG2 1.2.0
2023-10-07 15:12:02,256 [INFO] ThirdParty:1030 - CMSIS Pack Vendor :STMicroelectronics X-CUBE-AZRTOS-WB 1.1.0
2023-10-07 15:12:02,256 [INFO] ThirdParty:1030 - CMSIS Pack Vendor :STMicroelectronics X-CUBE-AZRTOS-WL 2.0.0
2023-10-07 15:12:02,256 [INFO] ThirdParty:1030 - CMSIS Pack Vendor :SEGGER I-CUBE-embOS 1.3.1
2023-10-07 15:12:02,256 [INFO] ThirdParty:1030 - CMSIS Pack Vendor :STMicroelectronics USB_DEVICE 1.0.0
2023-10-07 15:12:02,256 [INFO] ThirdParty:1030 - CMSIS Pack Vendor :STMicroelectronics X-CUBE-AI 8.1.0
2023-10-07 15:12:02,256 [INFO] ThirdParty:1030 - CMSIS Pack Vendor :STMicroelectronics X-CUBE-AZRTOS-L4 2.0.0
2023-10-07 15:12:02,256 [INFO] ThirdParty:1030 - CMSIS Pack Vendor :STMicroelectronics ThreadX 0.0.2
2023-10-07 15:12:02,256 [INFO] ThirdParty:1030 - CMSIS Pack Vendor :WES I-CUBE-Cesium 1.3.0
2023-10-07 15:12:02,256 [INFO] ThirdParty:1030 - CMSIS Pack Vendor :STMicroelectronics FP-ATR-ASTRA1 2.0.0
2023-10-07 15:12:02,256 [INFO] ThirdParty:1030 - CMSIS Pack Vendor :STMicroelectronics lwIP 2.1.2
2023-10-07 15:12:02,256 [INFO] ThirdParty:1030 - CMSIS Pack Vendor :STMicroelectronics X-CUBE-SFXS2LP1 4.0.0
2023-10-07 15:12:02,256 [INFO] ThirdParty:1030 - CMSIS Pack Vendor :STMicroelectronics X-CUBE-BLE2 3.3.0
2023-10-07 15:12:02,256 [INFO] ThirdParty:1030 - CMSIS Pack Vendor :STMicroelectronics X-CUBE-TOF1 3.2.0
2023-10-07 15:12:02,256 [INFO] ThirdParty:1030 - CMSIS Pack Vendor :STMicroelectronics PDM2PCM 3.2.0
2023-10-07 15:12:02,256 [INFO] ThirdParty:1030 - CMSIS Pack Vendor :STMicroelectronics X-CUBE-AZRTOS-H7 3.0.0
2023-10-07 15:12:02,256 [INFO] ThirdParty:841 - exiting critical section [change project]
2023-10-07 15:12:02,577 [INFO] PinOutPanel:1499 - setPackage(No Configuration,No Configuration)
2023-10-07 15:12:02,578 [INFO] PinOutPanel:1499 - setPackage(STM32L4R5ZITx,LQFP144)
2023-10-07 15:12:03,425 [INFO] UtilMem:75 - Before build in PCC Used Memory: 339070464 Bytes (709885952)
2023-10-07 15:12:04,307 [INFO] UtilMem:75 - After build in PCC Used Memory: 220059136 Bytes (709885952)
2023-10-07 15:12:04,307 [INFO] Middleware:617 - instanceName : STMicroelectronics.X-CUBE-AI.8.1.0 bspName : COM Port check condition success for : !SEMDeviceJjApplicationJjApplicationTemplate
2023-10-07 15:12:04,307 [INFO] Middleware:617 - instanceName : STMicroelectronics.X-CUBE-AI.8.1.0 bspName : COM Port check condition success for : !SEMDeviceJjApplicationJjApplicationTemplate
2023-10-07 15:12:04,308 [INFO] Middleware:617 - instanceName : STMicroelectronics.X-CUBE-AI.8.1.0 bspName : COM Port check condition success for : !SEMDeviceJjApplicationJjApplicationTemplate
2023-10-07 15:12:04,352 [INFO] IPUIPlugin:80 - create IPUIPlugin
2023-10-07 15:12:04,352 [INFO] IPUIPlugin:80 - create IPUIPlugin
2023-10-07 15:12:04,352 [INFO] IPUIPlugin:80 - create IPUIPlugin
2023-10-07 15:12:04,352 [INFO] IPUIPlugin:80 - create IPUIPlugin
2023-10-07 15:12:04,352 [INFO] IPUIPlugin:80 - create IPUIPlugin
2023-10-07 15:12:04,353 [INFO] IPUIPlugin:80 - create IPUIPlugin
2023-10-07 15:12:04,353 [INFO] IPUIPlugin:80 - create IPUIPlugin
2023-10-07 15:12:04,353 [INFO] IPUIPlugin:80 - create IPUIPlugin
2023-10-07 15:12:04,353 [INFO] IPUIPlugin:80 - create IPUIPlugin
2023-10-07 15:12:04,353 [INFO] IPUIPlugin:80 - create IPUIPlugin
2023-10-07 15:12:04,353 [INFO] IPUIPlugin:80 - create IPUIPlugin
2023-10-07 15:12:04,353 [INFO] IPUIPlugin:80 - create IPUIPlugin
2023-10-07 15:12:04,354 [INFO] IPUIPlugin:80 - create IPUIPlugin
2023-10-07 15:12:04,354 [INFO] IPUIPlugin:80 - create IPUIPlugin
2023-10-07 15:12:04,354 [INFO] IPUIPlugin:80 - create IPUIPlugin
2023-10-07 15:12:04,354 [INFO] IPUIPlugin:80 - create IPUIPlugin
2023-10-07 15:12:04,354 [INFO] IPUIPlugin:80 - create IPUIPlugin
2023-10-07 15:12:04,354 [INFO] IPUIPlugin:80 - create IPUIPlugin
2023-10-07 15:12:04,355 [INFO] IPUIPlugin:80 - create IPUIPlugin
2023-10-07 15:12:04,355 [INFO] IPUIPlugin:80 - create IPUIPlugin
2023-10-07 15:12:04,355 [INFO] IPUIPlugin:80 - create IPUIPlugin
2023-10-07 15:12:04,355 [INFO] IPUIPlugin:80 - create IPUIPlugin
2023-10-07 15:12:04,355 [INFO] IPUIPlugin:80 - create IPUIPlugin
2023-10-07 15:12:04,356 [INFO] IPUIPlugin:80 - create IPUIPlugin
2023-10-07 15:12:04,356 [INFO] IPUIPlugin:80 - create IPUIPlugin
2023-10-07 15:12:04,356 [INFO] IPUIPlugin:80 - create IPUIPlugin
2023-10-07 15:12:04,357 [INFO] IPUIPlugin:80 - create IPUIPlugin
2023-10-07 15:12:04,357 [INFO] IPUIPlugin:80 - create IPUIPlugin
2023-10-07 15:12:04,358 [INFO] IPUIPlugin:80 - create IPUIPlugin
2023-10-07 15:12:04,358 [INFO] IPUIPlugin:80 - create IPUIPlugin
2023-10-07 15:12:04,358 [INFO] IPUIPlugin:80 - create IPUIPlugin
2023-10-07 15:12:04,359 [INFO] IPUIPlugin:80 - create IPUIPlugin
2023-10-07 15:12:04,359 [INFO] IPUIPlugin:80 - create IPUIPlugin
2023-10-07 15:12:04,359 [INFO] IPUIPlugin:80 - create IPUIPlugin
2023-10-07 15:12:04,360 [INFO] IPUIPlugin:80 - create IPUIPlugin
2023-10-07 15:12:04,360 [INFO] IPUIPlugin:80 - create IPUIPlugin
2023-10-07 15:12:04,360 [INFO] IPUIPlugin:80 - create IPUIPlugin
2023-10-07 15:12:04,361 [INFO] IPUIPlugin:80 - create IPUIPlugin
2023-10-07 15:12:04,361 [INFO] IPUIPlugin:80 - create IPUIPlugin
2023-10-07 15:12:04,362 [INFO] IPUIPlugin:80 - create IPUIPlugin
2023-10-07 15:12:04,362 [INFO] IPUIPlugin:80 - create IPUIPlugin
2023-10-07 15:12:04,362 [INFO] IPUIPlugin:80 - create IPUIPlugin
2023-10-07 15:12:04,362 [INFO] IPUIPlugin:80 - create IPUIPlugin
2023-10-07 15:12:04,363 [INFO] IPUIPlugin:80 - create IPUIPlugin
2023-10-07 15:12:04,363 [INFO] IPUIPlugin:80 - create IPUIPlugin
2023-10-07 15:12:04,363 [INFO] IPUIPlugin:80 - create IPUIPlugin
2023-10-07 15:12:04,363 [INFO] IPUIPlugin:80 - create IPUIPlugin
2023-10-07 15:12:04,364 [INFO] IPUIPlugin:80 - create IPUIPlugin
2023-10-07 15:12:04,364 [INFO] IPUIPlugin:80 - create IPUIPlugin
2023-10-07 15:12:04,364 [INFO] IPUIPlugin:80 - create IPUIPlugin
2023-10-07 15:12:04,365 [INFO] IPUIPlugin:80 - create IPUIPlugin
2023-10-07 15:12:04,365 [INFO] IPUIPlugin:80 - create IPUIPlugin
2023-10-07 15:12:04,365 [INFO] IPUIPlugin:80 - create IPUIPlugin
2023-10-07 15:12:04,365 [INFO] IPUIPlugin:80 - create IPUIPlugin
2023-10-07 15:12:04,365 [INFO] IPUIPlugin:80 - create IPUIPlugin
2023-10-07 15:12:04,366 [INFO] IPUIPlugin:80 - create IPUIPlugin
2023-10-07 15:12:04,366 [INFO] IPUIPlugin:80 - create IPUIPlugin
2023-10-07 15:12:04,366 [INFO] IPUIPlugin:80 - create IPUIPlugin
2023-10-07 15:12:04,366 [INFO] IPUIPlugin:80 - create IPUIPlugin
2023-10-07 15:12:04,367 [INFO] IPUIPlugin:80 - create IPUIPlugin
2023-10-07 15:12:04,367 [INFO] IPUIPlugin:80 - create IPUIPlugin
2023-10-07 15:12:04,368 [INFO] IPUIPlugin:80 - create IPUIPlugin
2023-10-07 15:12:04,370 [INFO] AI:963 - onDisable adding AI com.st.microxplorer.plugins.ip.ai.AI@2dac200d on STMicroelectronics.X-CUBE-AI.8.1.0
2023-10-07 15:12:04,632 [INFO] CADModel:165 - CPN selected for project levelSTM32L4R5ZIT6
2023-10-07 15:12:04,632 [INFO] CADModel:114 - Register for checkConnection events
2023-10-07 15:12:04,929 [INFO] AIMainUI:1259 - Restoring parameters from IP...
2023-10-07 15:12:04,929 [INFO] AIMainUI:1378 - No old model detected
2023-10-07 15:12:04,971 [INFO] AInterface:109 - AInterface using toolDir: /home/matthias/STM32Cube/Repository/Packs/STMicroelectronics/X-CUBE-AI/8.1.0/Utilities/linux
2023-10-07 15:12:04,975 [INFO] AIModelDetailledView:2080 - Analysis status: -
2023-10-07 15:12:04,975 [INFO] AIModelDetailledView:861 - Selected model: TFLite
2023-10-07 15:12:05,046 [INFO] OpenFileManager:328 - Restore cursor
2023-10-07 15:12:05,456 [INFO] AIModelDetailledView:2080 - Analysis status: done
OK
project path /home/matthias/Documents/BA/layer-benchmark-2/src/st/workdir/network_output
2023-10-07 15:12:05,496 [INFO] UtilMem:75 - End SaveConfig() Used Memory: 240856848 Bytes (709885952)
2023-10-07 15:12:05,626 [INFO] Middleware:617 - instanceName : STMicroelectronics.X-CUBE-AI.8.1.0 bspName : COM Port check condition success for : !SEMDeviceJjApplicationJjApplicationTemplate
2023-10-07 15:12:05,626 [INFO] Middleware:617 - instanceName : STMicroelectronics.X-CUBE-AI.8.1.0 bspName : COM Port check condition success for : !SEMDeviceJjApplicationJjApplicationTemplate
2023-10-07 15:12:05,627 [INFO] Middleware:617 - instanceName : STMicroelectronics.X-CUBE-AI.8.1.0 bspName : COM Port check condition success for : !SEMDeviceJjApplicationJjApplicationTemplate
2023-10-07 15:12:05,627 [INFO] Middleware:617 - instanceName : STMicroelectronics.X-CUBE-AI.8.1.0 bspName : COM Port check condition success for : !SEMDeviceJjApplicationJjApplicationTemplate
2023-10-07 15:12:05,627 [INFO] Middleware:617 - instanceName : STMicroelectronics.X-CUBE-AI.8.1.0 bspName : COM Port check condition success for : !SEMDeviceJjApplicationJjApplicationTemplate
2023-10-07 15:12:05,627 [INFO] Middleware:617 - instanceName : STMicroelectronics.X-CUBE-AI.8.1.0 bspName : COM Port check condition success for : !SEMDeviceJjApplicationJjApplicationTemplate
2023-10-07 15:12:05,631 [INFO] AIModelDetailledView:2080 - Analysis status: -
2023-10-07 15:12:05,632 [INFO] AInterface:235 - ModelName:network; files:[/home/matthias/Documents/BA/layer-benchmark-2/src/st/workdir/model.tflite]; type:TFLite; compression:None
2023-10-07 15:12:05,633 [INFO] AInterface:510 - workspaceTempDir: /tmp/mxAI_workspace2173822431150010664680499867271201
2023-10-07 15:12:05,633 [INFO] AInterface:1049 - Setting Env: /home/matthias/STM32Cube/Repository/Packs/STMicroelectronics/X-CUBE-AI/8.1.0/Utilities/linux
2023-10-07 15:12:05,651 [INFO] STM32CubeIDEBuilder:256 - Looking for gnu-tools-for-stm32 tools/bin/arm-none-eabi-gcc in /opt/st/stm32cubeide_1.11.2
2023-10-07 15:12:05,654 [INFO] STM32CubeIDEBuilder:285 - checking /opt/st/stm32cubeide_1.11.2/plugins/com.st.stm32cube.ide.mcu.externaltools.gnu-tools-for-stm32.10.3-2021.10.linux64_1.0.100.202210260954/tools/bin/arm-none-eabi-gcc
2023-10-07 15:12:05,654 [INFO] STM32CubeIDEBuilder:288 - ret=/opt/st/stm32cubeide_1.11.2/plugins/com.st.stm32cube.ide.mcu.externaltools.gnu-tools-for-stm32.10.3-2021.10.linux64_1.0.100.202210260954/tools/bin/arm-none-eabi-gcc
2023-10-07 15:12:05,654 [INFO] STM32CubeIDEBuilder:302 - returning /opt/st/stm32cubeide_1.11.2/plugins/com.st.stm32cube.ide.mcu.externaltools.gnu-tools-for-stm32.10.3-2021.10.linux64_1.0.100.202210260954/tools/bin/arm-none-eabi-gcc
2023-10-07 15:12:05,654 [INFO] AInterface:1106 - Custom PATH variable: /home/matthias/STM32Cube/Repository/Packs/STMicroelectronics/X-CUBE-AI/8.1.0/Utilities/linux:/bin:/usr/bin:/usr/sbin:/sbin:/home/matthias/STM32Cube/Repository/Packs/STMicroelectronics/X-CUBE-AI/8.1.0/Utilities/linux/node/bin:/opt/st/stm32cubeide_1.11.2/plugins/com.st.stm32cube.ide.mcu.externaltools.gnu-tools-for-stm32.10.3-2021.10.linux64_1.0.100.202210260954/tools/bin
2023-10-07 15:12:05,664 [INFO] CmdLine:100 - Command: /home/matthias/STM32Cube/Repository/Packs/STMicroelectronics/X-CUBE-AI/8.1.0/Utilities/linux/stm32ai analyze --name network -m /home/matthias/Documents/BA/layer-benchmark-2/src/st/workdir/model.tflite --type tflite --compression none --verbosity 1 --workspace /tmp/mxAI_workspace2173822431150010664680499867271201 --output /home/matthias/.stm32cubemx/network_output --allocate-inputs --series stm32l4 --allocate-outputs 
2023-10-07 15:12:05,664 [INFO] AIModelDetailledView:2080 - Analysis status: pending
2023-10-07 15:12:13,496 [INFO] CmdLine:67 - Neural Network Tools for STM32 family v1.7.0 (stm.ai v8.1.0-19520)
2023-10-07 15:12:16,461 [ERROR] CmdLine:53 - fatal: not a git repository (or any of the parent directories): .git
2023-10-07 15:12:16,527 [INFO] CmdLine:67 -  
2023-10-07 15:12:16,527 [INFO] CmdLine:67 -  Exec/report summary (analyze)
2023-10-07 15:12:16,528 [INFO] CmdLine:67 -  ---------------------------------------------------------------------------------------------------
2023-10-07 15:12:16,528 [INFO] CmdLine:67 -  model file         :   /home/matthias/Documents/BA/layer-benchmark-2/src/st/workdir/model.tflite   
2023-10-07 15:12:16,528 [INFO] CmdLine:67 -  type               :   tflite                                                                      
2023-10-07 15:12:16,529 [INFO] CmdLine:67 -  c_name             :   network                                                                     
2023-10-07 15:12:16,529 [INFO] CmdLine:67 -  compression        :   none                                                                        
2023-10-07 15:12:16,529 [INFO] CmdLine:67 -  options            :   allocate-inputs, allocate-outputs                                           
2023-10-07 15:12:16,529 [INFO] CmdLine:67 -  optimization       :   balanced                                                                    
2023-10-07 15:12:16,530 [INFO] CmdLine:67 -  target/series      :   stm32l4                                                                     
2023-10-07 15:12:16,530 [INFO] CmdLine:67 -  workspace dir      :   /tmp/mxAI_workspace2173822431150010664680499867271201                       
2023-10-07 15:12:16,530 [INFO] CmdLine:67 -  output dir         :   /home/matthias/.stm32cubemx/network_output                                  
2023-10-07 15:12:16,531 [INFO] CmdLine:67 -  model_fmt          :   ss/sa per channel                                                           
2023-10-07 15:12:16,531 [INFO] CmdLine:67 -  model_name         :   model                                                                       
2023-10-07 15:12:16,531 [INFO] CmdLine:67 -  model_hash         :   5d13985e2eda8ffe0f5b23c909571878                                            
2023-10-07 15:12:16,531 [INFO] CmdLine:67 -  params #           :   210,850 items (213.93 KiB)                                                  
2023-10-07 15:12:16,532 [INFO] CmdLine:67 -  ---------------------------------------------------------------------------------------------------
2023-10-07 15:12:16,532 [INFO] CmdLine:67 -  input 1/1          :   'serving_default_input_10' (domain:activations/**default**)                 
2023-10-07 15:12:16,532 [INFO] CmdLine:67 -                     :   27648 items, 27.00 KiB, ai_i8, s=0.00392157, zp=-128, (1,96,96,3)           
2023-10-07 15:12:16,532 [INFO] CmdLine:67 -  output 1/1         :   'gemm_29' (domain:activations/**default**)                                  
2023-10-07 15:12:16,533 [INFO] CmdLine:67 -                     :   2 items, 2 B, ai_i8, s=0.02482977, zp=3, (1,2)                              
2023-10-07 15:12:16,533 [INFO] CmdLine:67 -  macc               :   4,669,480                                                                   
2023-10-07 15:12:16,533 [INFO] CmdLine:67 -  weights (ro)       :   39,864 B (38.93 KiB) (1 segment) / -803,536(-95.3%) vs float model          
2023-10-07 15:12:16,534 [INFO] CmdLine:67 -  activations (rw)   :   41,152 B (40.19 KiB) (1 segment) *                                          
2023-10-07 15:12:16,534 [INFO] CmdLine:67 -  ram (total)        :   41,152 B (40.19 KiB) = 41,152 + 0 + 0                                       
2023-10-07 15:12:16,534 [INFO] CmdLine:67 -  ---------------------------------------------------------------------------------------------------
2023-10-07 15:12:16,534 [INFO] CmdLine:67 -  (*) 'input'/'output' buffers can be used from the activations buffer
2023-10-07 15:12:17,111 [INFO] CmdLine:67 -                                                        
2023-10-07 15:12:17,111 [INFO] CmdLine:67 -  Model name - model ['serving_default_input_10'] ['gemm_29']
2023-10-07 15:12:17,112 [INFO] CmdLine:67 -  ------ --------------------------------------- --------------------------- --------------- --------- ------------------------------------
2023-10-07 15:12:17,112 [INFO] CmdLine:67 -  m_id   layer (original)                        oshape                      param/size           macc                         connected to
2023-10-07 15:12:17,113 [INFO] CmdLine:67 -  ------ --------------------------------------- --------------------------- --------------- --------- ------------------------------------
2023-10-07 15:12:17,113 [INFO] CmdLine:67 -  0      serving_default_input_10 ()             [b:1,h:96,h:96,w:96,c:3]
2023-10-07 15:12:17,114 [INFO] CmdLine:67 -         conv2d_0 (CONV_2D)                      [b:1,h:48,h:48,w:48,c:8]    224/248           497,672             serving_default_input_10
2023-10-07 15:12:17,114 [INFO] CmdLine:67 -         nl_0_nl (CONV_2D)                       [b:1,h:48,h:48,w:48,c:8]                       18,432                             conv2d_0
2023-10-07 15:12:17,114 [INFO] CmdLine:67 -  ------ --------------------------------------- --------------------------- --------------- --------- ------------------------------------
2023-10-07 15:12:17,115 [INFO] CmdLine:67 -  1      conv2d_1 (DEPTHWISE_CONV_2D)            [b:1,h:48,h:48,w:48,c:8]    80/104            165,896                              nl_0_nl
2023-10-07 15:12:17,115 [INFO] CmdLine:67 -         nl_1_nl (DEPTHWISE_CONV_2D)             [b:1,h:48,h:48,w:48,c:8]                       18,432                             conv2d_1
2023-10-07 15:12:17,116 [INFO] CmdLine:67 -  ------ --------------------------------------- --------------------------- --------------- --------- ------------------------------------
2023-10-07 15:12:17,116 [INFO] CmdLine:67 -  2      conv2d_2 (CONV_2D)                      [b:1,h:48,h:48,w:48,c:16]   144/192           294,928                              nl_1_nl
2023-10-07 15:12:17,117 [INFO] CmdLine:67 -         nl_2_nl (CONV_2D)                       [b:1,h:48,h:48,w:48,c:16]                      36,864                             conv2d_2
2023-10-07 15:12:17,117 [INFO] CmdLine:67 -  ------ --------------------------------------- --------------------------- --------------- --------- ------------------------------------
2023-10-07 15:12:17,117 [INFO] CmdLine:67 -  3      conv2d_3 (DEPTHWISE_CONV_2D)            [b:1,h:24,h:24,w:24,c:16]   160/208            82,960                              nl_2_nl
2023-10-07 15:12:17,117 [INFO] CmdLine:67 -         nl_3_nl (DEPTHWISE_CONV_2D)             [b:1,h:24,h:24,w:24,c:16]                       9,216                             conv2d_3
2023-10-07 15:12:17,118 [INFO] CmdLine:67 -  ------ --------------------------------------- --------------------------- --------------- --------- ------------------------------------
2023-10-07 15:12:17,118 [INFO] CmdLine:67 -  4      conv2d_4 (CONV_2D)                      [b:1,h:24,h:24,w:24,c:32]   544/640           294,944                              nl_3_nl
2023-10-07 15:12:17,118 [INFO] CmdLine:67 -         nl_4_nl (CONV_2D)                       [b:1,h:24,h:24,w:24,c:32]                      18,432                             conv2d_4
2023-10-07 15:12:17,118 [INFO] CmdLine:67 -  ------ --------------------------------------- --------------------------- --------------- --------- ------------------------------------
2023-10-07 15:12:17,118 [INFO] CmdLine:67 -  5      conv2d_5 (DEPTHWISE_CONV_2D)            [b:1,h:24,h:24,w:24,c:32]   320/416           165,920                              nl_4_nl
2023-10-07 15:12:17,119 [INFO] CmdLine:67 -         nl_5_nl (DEPTHWISE_CONV_2D)             [b:1,h:24,h:24,w:24,c:32]                      18,432                             conv2d_5
2023-10-07 15:12:17,119 [INFO] CmdLine:67 -  ------ --------------------------------------- --------------------------- --------------- --------- ------------------------------------
2023-10-07 15:12:17,119 [INFO] CmdLine:67 -  6      conv2d_6 (CONV_2D)                      [b:1,h:24,h:24,w:24,c:32]   1,056/1,152       589,856                              nl_5_nl
2023-10-07 15:12:17,119 [INFO] CmdLine:67 -         nl_6_nl (CONV_2D)                       [b:1,h:24,h:24,w:24,c:32]                      18,432                             conv2d_6
2023-10-07 15:12:17,119 [INFO] CmdLine:67 -  ------ --------------------------------------- --------------------------- --------------- --------- ------------------------------------
2023-10-07 15:12:17,120 [INFO] CmdLine:67 -  7      conv2d_7 (DEPTHWISE_CONV_2D)            [b:1,h:12,h:12,w:12,c:32]   320/416            41,504                              nl_6_nl
2023-10-07 15:12:17,120 [INFO] CmdLine:67 -         nl_7_nl (DEPTHWISE_CONV_2D)             [b:1,h:12,h:12,w:12,c:32]                       4,608                             conv2d_7
2023-10-07 15:12:17,120 [INFO] CmdLine:67 -  ------ --------------------------------------- --------------------------- --------------- --------- ------------------------------------
2023-10-07 15:12:17,120 [INFO] CmdLine:67 -  8      conv2d_8 (CONV_2D)                      [b:1,h:12,h:12,w:12,c:64]   2,112/2,304       294,976                              nl_7_nl
2023-10-07 15:12:17,120 [INFO] CmdLine:67 -         nl_8_nl (CONV_2D)                       [b:1,h:12,h:12,w:12,c:64]                       9,216                             conv2d_8
2023-10-07 15:12:17,121 [INFO] CmdLine:67 -  ------ --------------------------------------- --------------------------- --------------- --------- ------------------------------------
2023-10-07 15:12:17,121 [INFO] CmdLine:67 -  9      conv2d_9 (DEPTHWISE_CONV_2D)            [b:1,h:12,h:12,w:12,c:64]   640/832            83,008                              nl_8_nl
2023-10-07 15:12:17,121 [INFO] CmdLine:67 -         nl_9_nl (DEPTHWISE_CONV_2D)             [b:1,h:12,h:12,w:12,c:64]                       9,216                             conv2d_9
2023-10-07 15:12:17,122 [INFO] CmdLine:67 -  ------ --------------------------------------- --------------------------- --------------- --------- ------------------------------------
2023-10-07 15:12:17,122 [INFO] CmdLine:67 -  10     conv2d_10 (CONV_2D)                     [b:1,h:12,h:12,w:12,c:64]   4,160/4,352       589,888                              nl_9_nl
2023-10-07 15:12:17,122 [INFO] CmdLine:67 -         nl_10_nl (CONV_2D)                      [b:1,h:12,h:12,w:12,c:64]                       9,216                            conv2d_10
2023-10-07 15:12:17,123 [INFO] CmdLine:67 -  ------ --------------------------------------- --------------------------- --------------- --------- ------------------------------------
2023-10-07 15:12:17,124 [INFO] CmdLine:67 -  11     conv2d_11 (DEPTHWISE_CONV_2D)           [b:1,h:6,h:6,w:6,c:64]      640/832            20,800                             nl_10_nl
2023-10-07 15:12:17,124 [INFO] CmdLine:67 -         nl_11_nl (DEPTHWISE_CONV_2D)            [b:1,h:6,h:6,w:6,c:64]                          2,304                            conv2d_11
2023-10-07 15:12:17,124 [INFO] CmdLine:67 -  ------ --------------------------------------- --------------------------- --------------- --------- ------------------------------------
2023-10-07 15:12:17,124 [INFO] CmdLine:67 -  12     conv2d_12 (CONV_2D)                     [b:1,h:6,h:6,w:6,c:128]     8,320/8,704       295,040                             nl_11_nl
2023-10-07 15:12:17,125 [INFO] CmdLine:67 -         nl_12_nl (CONV_2D)                      [b:1,h:6,h:6,w:6,c:128]                         4,608                            conv2d_12
2023-10-07 15:12:17,125 [INFO] CmdLine:67 -  ------ --------------------------------------- --------------------------- --------------- --------- ------------------------------------
2023-10-07 15:12:17,125 [INFO] CmdLine:67 -  13     conv2d_13 (DEPTHWISE_CONV_2D)           [b:1,h:6,h:6,w:6,c:128]     1,280/1,664        41,600                             nl_12_nl
2023-10-07 15:12:17,125 [INFO] CmdLine:67 -         nl_13_nl (DEPTHWISE_CONV_2D)            [b:1,h:6,h:6,w:6,c:128]                         4,608                            conv2d_13
2023-10-07 15:12:17,125 [INFO] CmdLine:67 -  ------ --------------------------------------- --------------------------- --------------- --------- ------------------------------------
2023-10-07 15:12:17,126 [INFO] CmdLine:67 -  14     conv2d_14 (CONV_2D)                     [b:1,h:6,h:6,w:6,c:128]     16,512/16,896     589,952                             nl_13_nl
2023-10-07 15:12:17,126 [INFO] CmdLine:67 -         nl_14_nl (CONV_2D)                      [b:1,h:6,h:6,w:6,c:128]                         4,608                            conv2d_14
2023-10-07 15:12:17,126 [INFO] CmdLine:67 -  ------ --------------------------------------- --------------------------- --------------- --------- ------------------------------------
2023-10-07 15:12:17,126 [INFO] CmdLine:67 -  15     conv2d_15 (DEPTHWISE_CONV_2D)           [b:1,h:6,h:6,w:6,c:128]     1,280/1,664        41,600                             nl_14_nl
2023-10-07 15:12:17,126 [INFO] CmdLine:67 -         nl_15_nl (DEPTHWISE_CONV_2D)            [b:1,h:6,h:6,w:6,c:128]                         4,608                            conv2d_15
2023-10-07 15:12:17,127 [INFO] CmdLine:67 -  ------ --------------------------------------- --------------------------- --------------- --------- ------------------------------------
2023-10-07 15:12:17,127 [INFO] CmdLine:67 -  16     conv2d_16 (CONV_2D)                     [b:1,h:6,h:6,w:6,c:128]     16,512/16,896     589,952                             nl_15_nl
2023-10-07 15:12:17,127 [INFO] CmdLine:67 -         nl_16_nl (CONV_2D)                      [b:1,h:6,h:6,w:6,c:128]                         4,608                            conv2d_16
2023-10-07 15:12:17,127 [INFO] CmdLine:67 -  ------ --------------------------------------- --------------------------- --------------- --------- ------------------------------------
2023-10-07 15:12:17,127 [INFO] CmdLine:67 -  17     conv2d_17 (DEPTHWISE_CONV_2D)           [b:1,h:6,h:6,w:6,c:128]     1,280/1,664        41,600                             nl_16_nl
2023-10-07 15:12:17,128 [INFO] CmdLine:67 -         nl_17_nl (DEPTHWISE_CONV_2D)            [b:1,h:6,h:6,w:6,c:128]                         4,608                            conv2d_17
2023-10-07 15:12:17,128 [INFO] CmdLine:67 -  ------ --------------------------------------- --------------------------- --------------- --------- ------------------------------------
2023-10-07 15:12:17,128 [INFO] CmdLine:67 -  18     conv2d_18 (CONV_2D)                     [b:1,h:6,h:6,w:6,c:128]     16,512/16,896     589,952                             nl_17_nl
2023-10-07 15:12:17,128 [INFO] CmdLine:67 -         nl_18_nl (CONV_2D)                      [b:1,h:6,h:6,w:6,c:128]                         4,608                            conv2d_18
2023-10-07 15:12:17,128 [INFO] CmdLine:67 -  ------ --------------------------------------- --------------------------- --------------- --------- ------------------------------------
2023-10-07 15:12:17,129 [INFO] CmdLine:67 -  19     conv2d_19 (DEPTHWISE_CONV_2D)           [b:1,h:6,h:6,w:6,c:128]     1,280/1,664        41,600                             nl_18_nl
2023-10-07 15:12:17,129 [INFO] CmdLine:67 -         nl_19_nl (DEPTHWISE_CONV_2D)            [b:1,h:6,h:6,w:6,c:128]                         4,608                            conv2d_19
2023-10-07 15:12:17,129 [INFO] CmdLine:67 -  ------ --------------------------------------- --------------------------- --------------- --------- ------------------------------------
2023-10-07 15:12:17,129 [INFO] CmdLine:67 -  20     conv2d_20 (CONV_2D)                     [b:1,h:6,h:6,w:6,c:128]     16,512/16,896     589,952                             nl_19_nl
2023-10-07 15:12:17,129 [INFO] CmdLine:67 -         nl_20_nl (CONV_2D)                      [b:1,h:6,h:6,w:6,c:128]                         4,608                            conv2d_20
2023-10-07 15:12:17,129 [INFO] CmdLine:67 -  ------ --------------------------------------- --------------------------- --------------- --------- ------------------------------------
2023-10-07 15:12:17,130 [INFO] CmdLine:67 -  21     conv2d_21 (DEPTHWISE_CONV_2D)           [b:1,h:6,h:6,w:6,c:128]     1,280/1,664        41,600                             nl_20_nl
2023-10-07 15:12:17,130 [INFO] CmdLine:67 -         nl_21_nl (DEPTHWISE_CONV_2D)            [b:1,h:6,h:6,w:6,c:128]                         4,608                            conv2d_21
2023-10-07 15:12:17,130 [INFO] CmdLine:67 -  ------ --------------------------------------- --------------------------- --------------- --------- ------------------------------------
2023-10-07 15:12:17,130 [INFO] CmdLine:67 -  22     conv2d_22 (CONV_2D)                     [b:1,h:6,h:6,w:6,c:128]     16,512/16,896     589,952                             nl_21_nl
2023-10-07 15:12:17,130 [INFO] CmdLine:67 -         nl_22_nl (CONV_2D)                      [b:1,h:6,h:6,w:6,c:128]                         4,608                            conv2d_22
2023-10-07 15:12:17,130 [INFO] CmdLine:67 -  ------ --------------------------------------- --------------------------- --------------- --------- ------------------------------------
2023-10-07 15:12:17,131 [INFO] CmdLine:67 -  23     conv2d_23 (DEPTHWISE_CONV_2D)           [b:1,h:3,h:3,w:3,c:128]     1,280/1,664        10,496                             nl_22_nl
2023-10-07 15:12:17,131 [INFO] CmdLine:67 -         nl_23_nl (DEPTHWISE_CONV_2D)            [b:1,h:3,h:3,w:3,c:128]                         1,152                            conv2d_23
2023-10-07 15:12:17,131 [INFO] CmdLine:67 -  ------ --------------------------------------- --------------------------- --------------- --------- ------------------------------------
2023-10-07 15:12:17,131 [INFO] CmdLine:67 -  24     conv2d_24 (CONV_2D)                     [b:1,h:3,h:3,w:3,c:256]     33,024/33,792     295,168                             nl_23_nl
2023-10-07 15:12:17,131 [INFO] CmdLine:67 -         nl_24_nl (CONV_2D)                      [b:1,h:3,h:3,w:3,c:256]                         2,304                            conv2d_24
2023-10-07 15:12:17,132 [INFO] CmdLine:67 -  ------ --------------------------------------- --------------------------- --------------- --------- ------------------------------------
2023-10-07 15:12:17,132 [INFO] CmdLine:67 -  25     conv2d_25 (DEPTHWISE_CONV_2D)           [b:1,h:3,h:3,w:3,c:256]     2,560/3,328        20,992                             nl_24_nl
2023-10-07 15:12:17,132 [INFO] CmdLine:67 -         nl_25_nl (DEPTHWISE_CONV_2D)            [b:1,h:3,h:3,w:3,c:256]                         2,304                            conv2d_25
2023-10-07 15:12:17,132 [INFO] CmdLine:67 -  ------ --------------------------------------- --------------------------- --------------- --------- ------------------------------------
2023-10-07 15:12:17,132 [INFO] CmdLine:67 -  26     conv2d_26 (CONV_2D)                     [b:1,h:3,h:3,w:3,c:256]     65,792/66,560     590,080                             nl_25_nl
2023-10-07 15:12:17,132 [INFO] CmdLine:67 -         nl_26_nl (CONV_2D)                      [b:1,h:3,h:3,w:3,c:256]                         2,304                            conv2d_26
2023-10-07 15:12:17,134 [INFO] CmdLine:67 -  ------ --------------------------------------- --------------------------- --------------- --------- ------------------------------------
2023-10-07 15:12:17,134 [INFO] CmdLine:67 -  27     pool_27 (AVERAGE_POOL_2D)               [b:1,h:1,h:1,w:1,c:256]                         2,304                             nl_26_nl
2023-10-07 15:12:17,134 [INFO] CmdLine:67 -  ------ --------------------------------------- --------------------------- --------------- --------- ------------------------------------
2023-10-07 15:12:17,134 [INFO] CmdLine:67 -  28     reshape_28 (RESHAPE)                    [b:1,c:256]                                                                        pool_27
2023-10-07 15:12:17,134 [INFO] CmdLine:67 -  ------ --------------------------------------- --------------------------- --------------- --------- ------------------------------------
2023-10-07 15:12:17,135 [INFO] CmdLine:67 -  29     model_dense_MatMul ()                   [h:2,h:2,c:256]             512/512
2023-10-07 15:12:17,135 [INFO] CmdLine:67 -         model_dense_BiasAdd_ReadVariableOp ()   [c:2]                       2/8
2023-10-07 15:12:17,135 [INFO] CmdLine:67 -         gemm_29 (FULLY_CONNECTED)               [b:1,c:2]                                         514                           reshape_28
2023-10-07 15:12:17,135 [INFO] CmdLine:67 -                                                                                                                         model_dense_MatMul
2023-10-07 15:12:17,135 [INFO] CmdLine:67 -                                                                                                         model_dense_BiasAdd_ReadVariableOp
2023-10-07 15:12:17,135 [INFO] CmdLine:67 -  ------ --------------------------------------- --------------------------- --------------- --------- ------------------------------------
2023-10-07 15:12:17,136 [INFO] CmdLine:67 -  model/c-model: macc=7,726,258/4,669,480 -3,056,778(-39.6%) weights=219,064/39,864 -179,200(-81.8%) activations=--/41,152 io=--/0
2023-10-07 15:12:17,136 [INFO] CmdLine:67 -                                                        
2023-10-07 15:12:17,136 [INFO] CmdLine:67 -  Number of operations per c-layer
2023-10-07 15:12:17,136 [INFO] CmdLine:67 -  ------- ------ ----------------------------- ----------- ------------
2023-10-07 15:12:17,136 [INFO] CmdLine:67 -  c_id    m_id   name (type)                           #op         type
2023-10-07 15:12:17,137 [INFO] CmdLine:67 -  ------- ------ ----------------------------- ----------- ------------
2023-10-07 15:12:17,137 [INFO] CmdLine:67 -  0       0      conv2d_0 (optimized_conv2d)       497,672   smul_s8_s8
2023-10-07 15:12:17,137 [INFO] CmdLine:67 -  1       1      conv2d_1_pad_before (pad)               0   smul_s8_s8
2023-10-07 15:12:17,137 [INFO] CmdLine:67 -  2       1      conv2d_1 (conv2d)                 165,896   smul_s8_s8
2023-10-07 15:12:17,137 [INFO] CmdLine:67 -  3       2      conv2d_2 (conv2d)                 294,928   smul_s8_s8
2023-10-07 15:12:17,138 [INFO] CmdLine:67 -  4       3      conv2d_3_pad_before (pad)               0   smul_s8_s8
2023-10-07 15:12:17,138 [INFO] CmdLine:67 -  5       3      conv2d_3 (conv2d)                  82,960   smul_s8_s8
2023-10-07 15:12:17,138 [INFO] CmdLine:67 -  6       4      conv2d_4 (conv2d)                 294,944   smul_s8_s8
2023-10-07 15:12:17,138 [INFO] CmdLine:67 -  7       5      conv2d_5_pad_before (pad)               0   smul_s8_s8
2023-10-07 15:12:17,138 [INFO] CmdLine:67 -  8       5      conv2d_5 (conv2d)                 165,920   smul_s8_s8
2023-10-07 15:12:17,138 [INFO] CmdLine:67 -  9       6      conv2d_6 (conv2d)                 589,856   smul_s8_s8
2023-10-07 15:12:17,138 [INFO] CmdLine:67 -  10      7      conv2d_7_pad_before (pad)               0   smul_s8_s8
2023-10-07 15:12:17,138 [INFO] CmdLine:67 -  11      7      conv2d_7 (conv2d)                  41,504   smul_s8_s8
2023-10-07 15:12:17,139 [INFO] CmdLine:67 -  12      8      conv2d_8 (conv2d)                 294,976   smul_s8_s8
2023-10-07 15:12:17,139 [INFO] CmdLine:67 -  13      9      conv2d_9_pad_before (pad)               0   smul_s8_s8
2023-10-07 15:12:17,139 [INFO] CmdLine:67 -  14      9      conv2d_9 (conv2d)                  83,008   smul_s8_s8
2023-10-07 15:12:17,139 [INFO] CmdLine:67 -  15      10     conv2d_10 (conv2d)                571,454   smul_s8_s8
2023-10-07 15:12:17,139 [INFO] CmdLine:67 -  16      11     conv2d_11_pad_before (pad)              0   smul_s8_s8
2023-10-07 15:12:17,139 [INFO] CmdLine:67 -  17      11     conv2d_11 (conv2d)                 19,175   smul_s8_s8
2023-10-07 15:12:17,139 [INFO] CmdLine:67 -  18      12     conv2d_12 (conv2d)                267,750   smul_s8_s8
2023-10-07 15:12:17,139 [INFO] CmdLine:67 -  19      13     conv2d_13_pad_before (pad)              0   smul_s8_s8
2023-10-07 15:12:17,139 [INFO] CmdLine:67 -  20      13     conv2d_13 (conv2d)                 34,450   smul_s8_s8
2023-10-07 15:12:17,140 [INFO] CmdLine:67 -  21      14     conv2d_14 (conv2d)                480,942   smul_s8_s8
2023-10-07 15:12:17,140 [INFO] CmdLine:67 -  22      15     conv2d_15_pad_before (pad)              0   smul_s8_s8
2023-10-07 15:12:17,140 [INFO] CmdLine:67 -  23      15     conv2d_15 (conv2d)                 20,150   smul_s8_s8
2023-10-07 15:12:17,140 [INFO] CmdLine:67 -  24      16     conv2d_16 (conv2d)                281,358   smul_s8_s8
2023-10-07 15:12:17,140 [INFO] CmdLine:67 -  25      17     conv2d_17_pad_before (pad)              0   smul_s8_s8
2023-10-07 15:12:17,140 [INFO] CmdLine:67 -  26      17     conv2d_17 (conv2d)                 11,700   smul_s8_s8
2023-10-07 15:12:17,140 [INFO] CmdLine:67 -  27      18     conv2d_18 (conv2d)                163,422   smul_s8_s8
2023-10-07 15:12:17,140 [INFO] CmdLine:67 -  28      19     conv2d_19_pad_before (pad)              0   smul_s8_s8
2023-10-07 15:12:17,140 [INFO] CmdLine:67 -  29      19     conv2d_19 (conv2d)                  8,450   smul_s8_s8
2023-10-07 15:12:17,140 [INFO] CmdLine:67 -  30      20     conv2d_20 (conv2d)                118,062   smul_s8_s8
2023-10-07 15:12:17,141 [INFO] CmdLine:67 -  31      21     conv2d_21_pad_before (pad)              0   smul_s8_s8
2023-10-07 15:12:17,141 [INFO] CmdLine:67 -  32      21     conv2d_21 (conv2d)                  4,875   smul_s8_s8
2023-10-07 15:12:17,141 [INFO] CmdLine:67 -  33      22     conv2d_22 (conv2d)                 68,166   smul_s8_s8
2023-10-07 15:12:17,141 [INFO] CmdLine:67 -  34      23     conv2d_23_pad_before (pad)              0   smul_s8_s8
2023-10-07 15:12:17,141 [INFO] CmdLine:67 -  35      23     conv2d_23 (conv2d)                  2,050   smul_s8_s8
2023-10-07 15:12:17,141 [INFO] CmdLine:67 -  36      24     conv2d_24 (conv2d)                 57,404   smul_s8_s8
2023-10-07 15:12:17,141 [INFO] CmdLine:67 -  37      25     conv2d_25_pad_before (pad)              0   smul_s8_s8
2023-10-07 15:12:17,141 [INFO] CmdLine:67 -  38      25     conv2d_25 (conv2d)                  1,558   smul_s8_s8
2023-10-07 15:12:17,141 [INFO] CmdLine:67 -  39      26     conv2d_26 (conv2d)                 44,032   smul_s8_s8
2023-10-07 15:12:17,141 [INFO] CmdLine:67 -  40      27     pool_27 (pool)                      2,304     op_s8_s8
2023-10-07 15:12:17,142 [INFO] CmdLine:67 -  41      29     gemm_29 (dense)                       514   smul_s8_s8
2023-10-07 15:12:17,142 [INFO] CmdLine:67 -  ------- ------ ----------------------------- ----------- ------------
2023-10-07 15:12:17,142 [INFO] CmdLine:67 -  total                                          4,669,480
2023-10-07 15:12:17,142 [INFO] CmdLine:67 -                                                        
2023-10-07 15:12:17,142 [INFO] CmdLine:67 -  Number of operation types
2023-10-07 15:12:17,142 [INFO] CmdLine:67 -  ---------------- ----------- -----------
2023-10-07 15:12:17,142 [INFO] CmdLine:67 -  operation type             #           %
2023-10-07 15:12:17,142 [INFO] CmdLine:67 -  ---------------- ----------- -----------
2023-10-07 15:12:17,142 [INFO] CmdLine:67 -  smul_s8_s8         4,667,176      100.0%
2023-10-07 15:12:17,142 [INFO] CmdLine:67 -  op_s8_s8               2,304        0.0%
2023-10-07 15:12:17,142 [INFO] CmdLine:67 -                                                        
2023-10-07 15:12:17,143 [INFO] CmdLine:67 -  Complexity report (model)
2023-10-07 15:12:17,143 [INFO] CmdLine:67 -  ------ -------------------------- ------------------------- ------------------------- ----------
2023-10-07 15:12:17,143 [INFO] CmdLine:67 -  m_id   name                       c_macc                    c_rom                     c_id
2023-10-07 15:12:17,143 [INFO] CmdLine:67 -  ------ -------------------------- ------------------------- ------------------------- ----------
2023-10-07 15:12:17,143 [INFO] CmdLine:67 -  0      serving_default_input_10   |||||||||||||     10.7%   |                  0.6%   [0]
2023-10-07 15:12:17,143 [INFO] CmdLine:67 -  1      conv2d_1                   |||||              3.6%   |                  0.3%   [1, 2]
2023-10-07 15:12:17,143 [INFO] CmdLine:67 -  2      conv2d_2                   ||||||||           6.3%   |                  0.5%   [3]
2023-10-07 15:12:17,143 [INFO] CmdLine:67 -  3      conv2d_3                   |||                1.8%   |                  0.5%   [4, 5]
2023-10-07 15:12:17,143 [INFO] CmdLine:67 -  4      conv2d_4                   ||||||||           6.3%   ||                 1.6%   [6]
2023-10-07 15:12:17,144 [INFO] CmdLine:67 -  5      conv2d_5                   |||||              3.6%   |                  1.0%   [7, 8]
2023-10-07 15:12:17,144 [INFO] CmdLine:67 -  6      conv2d_6                   ||||||||||||||||  12.6%   |||                2.9%   [9]
2023-10-07 15:12:17,144 [INFO] CmdLine:67 -  7      conv2d_7                   ||                 0.9%   |                  1.0%   [10, 11]
2023-10-07 15:12:17,144 [INFO] CmdLine:67 -  8      conv2d_8                   ||||||||           6.3%   ||||||             5.8%   [12]
2023-10-07 15:12:17,144 [INFO] CmdLine:67 -  9      conv2d_9                   |||                1.8%   ||                 2.1%   [13, 14]
2023-10-07 15:12:17,144 [INFO] CmdLine:67 -  10     conv2d_10                  |||||||||||||||   12.2%   |||||||||         10.1%   [15]
2023-10-07 15:12:17,145 [INFO] CmdLine:67 -  11     conv2d_11                  |                  0.4%   ||                 1.9%   [16, 17]
2023-10-07 15:12:17,145 [INFO] CmdLine:67 -  12     conv2d_12                  |||||||            5.7%   |||||||||||||||   16.8%   [18]
2023-10-07 15:12:17,145 [INFO] CmdLine:67 -  13     conv2d_13                  |                  0.7%   ||||               3.5%   [19, 20]
2023-10-07 15:12:17,145 [INFO] CmdLine:67 -  14     conv2d_14                  |||||||||||||     10.3%   ||||||||||||||||  17.1%   [21]
2023-10-07 15:12:17,145 [INFO] CmdLine:67 -  15     conv2d_15                  |                  0.4%   ||                 2.0%   [22, 23]
2023-10-07 15:12:17,145 [INFO] CmdLine:67 -  16     conv2d_16                  ||||||||           6.0%   ||||||             6.0%   [24]
2023-10-07 15:12:17,145 [INFO] CmdLine:67 -  17     conv2d_17                  |                  0.3%   ||                 1.2%   [25, 26]
2023-10-07 15:12:17,145 [INFO] CmdLine:67 -  18     conv2d_18                  |||||              3.5%   |||                2.6%   [27]
2023-10-07 15:12:17,146 [INFO] CmdLine:67 -  19     conv2d_19                  |                  0.2%   |                  0.9%   [28, 29]
2023-10-07 15:12:17,146 [INFO] CmdLine:67 -  20     conv2d_20                  ||||               2.5%   |                  1.1%   [30]
2023-10-07 15:12:17,146 [INFO] CmdLine:67 -  21     conv2d_21                  |                  0.1%   |                  0.5%   [31, 32]
2023-10-07 15:12:17,146 [INFO] CmdLine:67 -  22     conv2d_22                  ||                 1.5%   ||                 1.2%   [33]
2023-10-07 15:12:17,146 [INFO] CmdLine:67 -  23     conv2d_23                  |                  0.0%   |                  0.8%   [34, 35]
2023-10-07 15:12:17,146 [INFO] CmdLine:67 -  24     conv2d_24                  ||                 1.2%   ||                 1.4%   [36]
2023-10-07 15:12:17,146 [INFO] CmdLine:67 -  25     conv2d_25                  |                  0.0%   |                  0.6%   [37, 38]
2023-10-07 15:12:17,146 [INFO] CmdLine:67 -  26     conv2d_26                  ||                 0.9%   |||||||||||||     14.8%   [39]
2023-10-07 15:12:17,147 [INFO] CmdLine:67 -  27     pool_27                    |                  0.0%   |                  0.0%   [40]
2023-10-07 15:12:17,147 [INFO] CmdLine:67 -  29     model_dense_MatMul         |                  0.0%   ||                 1.3%   [41]
2023-10-07 15:12:17,147 [INFO] CmdLine:67 -  ------ -------------------------- ------------------------- ------------------------- ----------
2023-10-07 15:12:17,147 [INFO] CmdLine:67 -  macc=4,669,480 weights=39,864 act=41,152 ram_io=0
2023-10-07 15:12:17,147 [INFO] CmdLine:67 -                                                        
2023-10-07 15:12:17,147 [INFO] CmdLine:67 -  Requested memory size per segment ("stm32l4" series)
2023-10-07 15:12:17,147 [INFO] CmdLine:67 -  ----------------------------- -------- -------- -------- --------
2023-10-07 15:12:17,147 [INFO] CmdLine:67 -  module                            text   rodata     data      bss
2023-10-07 15:12:17,147 [INFO] CmdLine:67 -  ----------------------------- -------- -------- -------- --------
2023-10-07 15:12:17,148 [INFO] CmdLine:67 -  NetworkRuntime810_CM4_GCC.a     25,176        0        0        0
2023-10-07 15:12:17,148 [INFO] CmdLine:67 -  network.o                        2,584    8,193   15,384      656
2023-10-07 15:12:17,148 [INFO] CmdLine:67 -  network_data.o                      52       16       88        0
2023-10-07 15:12:17,148 [INFO] CmdLine:67 -  lib (toolchain)*                 1,652        0        0        0
2023-10-07 15:12:17,148 [INFO] CmdLine:67 -  ----------------------------- -------- -------- -------- --------
2023-10-07 15:12:17,148 [INFO] CmdLine:67 -  RT total**                      29,464    8,209   15,472      656
2023-10-07 15:12:17,149 [INFO] CmdLine:67 -  ----------------------------- -------- -------- -------- --------
2023-10-07 15:12:17,149 [INFO] CmdLine:67 -  *weights*                            0   39,864        0        0
2023-10-07 15:12:17,149 [INFO] CmdLine:67 -  *activations*                        0        0        0   41,152
2023-10-07 15:12:17,149 [INFO] CmdLine:67 -  *io*                                 0        0        0        0
2023-10-07 15:12:17,150 [INFO] CmdLine:67 -  ----------------------------- -------- -------- -------- --------
2023-10-07 15:12:17,150 [INFO] CmdLine:67 -  TOTAL                           29,464   48,073   15,472   41,808
2023-10-07 15:12:17,150 [INFO] CmdLine:67 -  ----------------------------- -------- -------- -------- --------
2023-10-07 15:12:17,150 [INFO] CmdLine:67 -  *  toolchain objects (libm/libgcc*)
2023-10-07 15:12:17,151 [INFO] CmdLine:67 -  ** RT - AI runtime objects (kernels+infrastructure)
2023-10-07 15:12:17,151 [INFO] CmdLine:67 -                                                        
2023-10-07 15:12:17,151 [INFO] CmdLine:67 -   Summary per memory device type
2023-10-07 15:12:17,151 [INFO] CmdLine:67 -   ---------------------------------------------
2023-10-07 15:12:17,152 [INFO] CmdLine:67 -   .\device      FLASH       %      RAM       %
2023-10-07 15:12:17,152 [INFO] CmdLine:67 -   ---------------------------------------------
2023-10-07 15:12:17,152 [INFO] CmdLine:67 -   RT total     53,145   57.1%   16,128   28.2%
2023-10-07 15:12:17,152 [INFO] CmdLine:67 -   ---------------------------------------------
2023-10-07 15:12:17,153 [INFO] CmdLine:67 -   TOTAL        93,009           57,280
2023-10-07 15:12:17,153 [INFO] CmdLine:67 -   ---------------------------------------------
2023-10-07 15:12:17,153 [INFO] CmdLine:67 -                                                        
2023-10-07 15:12:17,153 [INFO] CmdLine:67 - Creating txt report file /home/matthias/.stm32cubemx/network_output/network_analyze_report.txt
2023-10-07 15:12:17,229 [INFO] CmdLine:67 - elapsed time (analyze): 3.733s
2023-10-07 15:12:17,654 [INFO] CmdLine:132 - stm32ai exit with status: 0
2023-10-07 15:12:17,669 [INFO] AInterface:601 - Successfully load: network
2023-10-07 15:12:17,708 [INFO] AIModelDetailledView:2409 - Analyze complete on AI model
2023-10-07 15:12:17,711 [INFO] AIModelDetailledView:2080 - Analysis status: done
OK
project generate
2023-10-07 15:12:17,758 [INFO] UtilMem:75 - End SaveConfig() Used Memory: 447426320 Bytes (709885952)
2023-10-07 15:12:18,106 [INFO] BlockDiagram:2759 - set Specific Code input for plugin: SYS
2023-10-07 15:12:18,106 [INFO] BlockDiagram:2759 - set Specific Code input for plugin: RCC
2023-10-07 15:12:18,106 [INFO] BlockDiagram:2759 - set Specific Code input for plugin: CRC
2023-10-07 15:12:18,106 [INFO] BlockDiagram:2759 - set Specific Code input for plugin: LPUART
2023-10-07 15:12:18,106 [INFO] BlockDiagram:2759 - set Specific Code input for plugin: USB_OTG_FS
2023-10-07 15:12:18,107 [INFO] BlockDiagram:2759 - set Specific Code input for plugin: NVIC
2023-10-07 15:12:18,107 [INFO] BlockDiagram:2759 - set Specific Code input for plugin: USART
2023-10-07 15:12:18,107 [INFO] BlockDiagram:2759 - set Specific Code input for plugin: STMicroelectronics.X-CUBE-AI.8.1.0
2023-10-07 15:12:18,107 [INFO] BlockDiagram:2759 - set Specific Code input for plugin: GPIO
2023-10-07 15:12:18,115 [INFO] CodeGenerator:793 - code generatio: config db path: /usr/local/STMicroelectronics/STM32Cube/STM32CubeMX//db/
2023-10-07 15:12:18,363 [INFO] IP:3348 - RTE Config file name : RTE_Component
2023-10-07 15:12:18,364 [INFO] IP:3366 - RTE template : RTE_Components.ftl
2023-10-07 15:12:18,381 [INFO] CodeEngine:255 - oldGeneratedFile, /home/matthias/Documents/BA/layer-benchmark-2/src/st/workdir/network_output/template_cube_ai_8_1_balanced/MXTmpFiles/license.tmp_save
2023-10-07 15:12:18,653 [INFO] CodeEngine:279 - Generated code: /home/matthias/Documents/BA/layer-benchmark-2/src/st/workdir/network_output/template_cube_ai_8_1_balanced/MXTmpFiles/license.tmp
2023-10-07 15:12:18,718 [INFO] CodeEngine:255 - oldGeneratedFile, /home/matthias/Documents/BA/layer-benchmark-2/src/st/workdir/network_output/template_cube_ai_8_1_balanced/MXTmpFiles/gpio.tmp_save
2023-10-07 15:12:18,824 [INFO] CodeEngine:279 - Generated code: /home/matthias/Documents/BA/layer-benchmark-2/src/st/workdir/network_output/template_cube_ai_8_1_balanced/MXTmpFiles/gpio.tmp
2023-10-07 15:12:19,081 [WARN] IPConfigManager:2937 - Warning: the RefConfig PWREx_EnableUSBVoltageDetector is not available in your config.xml file
2023-10-07 15:12:19,088 [INFO] Middleware:1439 - No code input for Bsp Dependency
2023-10-07 15:12:19,091 [INFO] IP:3348 - RTE Config file name : RTE_Component
2023-10-07 15:12:19,091 [INFO] IP:3366 - RTE template : RTE_Components.ftl
2023-10-07 15:12:19,092 [INFO] Middleware:1439 - No code input for Bsp Dependency
2023-10-07 15:12:19,094 [INFO] IP:3348 - RTE Config file name : RTE_Component
2023-10-07 15:12:19,094 [INFO] IP:3366 - RTE template : RTE_Components.ftl
2023-10-07 15:12:19,096 [INFO] CodeEngine:255 - oldGeneratedFile, /home/matthias/Documents/BA/layer-benchmark-2/src/st/workdir/network_output/template_cube_ai_8_1_balanced/X-CUBE-AI/App/app_x-cube-ai.h_save
2023-10-07 15:12:19,165 [INFO] CodeEngine:279 - Generated code: /home/matthias/Documents/BA/layer-benchmark-2/src/st/workdir/network_output/template_cube_ai_8_1_balanced/X-CUBE-AI/App/app_x-cube-ai.h
2023-10-07 15:12:19,166 [INFO] CodeEngine:255 - oldGeneratedFile, /home/matthias/Documents/BA/layer-benchmark-2/src/st/workdir/network_output/template_cube_ai_8_1_balanced/X-CUBE-AI/constants_ai.h_save
2023-10-07 15:12:19,216 [INFO] CodeEngine:279 - Generated code: /home/matthias/Documents/BA/layer-benchmark-2/src/st/workdir/network_output/template_cube_ai_8_1_balanced/X-CUBE-AI/constants_ai.h
2023-10-07 15:12:19,217 [INFO] CodeEngine:255 - oldGeneratedFile, /home/matthias/Documents/BA/layer-benchmark-2/src/st/workdir/network_output/template_cube_ai_8_1_balanced/X-CUBE-AI/Target/bsp_ai.h_save
2023-10-07 15:12:19,297 [INFO] CodeEngine:279 - Generated code: /home/matthias/Documents/BA/layer-benchmark-2/src/st/workdir/network_output/template_cube_ai_8_1_balanced/X-CUBE-AI/Target/bsp_ai.h
2023-10-07 15:12:19,301 [INFO] CodeEngine:255 - oldGeneratedFile, /home/matthias/Documents/BA/layer-benchmark-2/src/st/workdir/network_output/template_cube_ai_8_1_balanced/X-CUBE-AI/App/app_x-cube-ai.c_save
2023-10-07 15:12:19,421 [INFO] CodeEngine:279 - Generated code: /home/matthias/Documents/BA/layer-benchmark-2/src/st/workdir/network_output/template_cube_ai_8_1_balanced/X-CUBE-AI/App/app_x-cube-ai.c
2023-10-07 15:12:19,432 [INFO] CodeEngine:255 - oldGeneratedFile, /home/matthias/Documents/BA/layer-benchmark-2/src/st/workdir/network_output/template_cube_ai_8_1_balanced/Core/Src/stm32l4xx_it.c_save
2023-10-07 15:12:19,521 [INFO] CodeEngine:279 - Generated code: /home/matthias/Documents/BA/layer-benchmark-2/src/st/workdir/network_output/template_cube_ai_8_1_balanced/Core/Src/stm32l4xx_it.c
2023-10-07 15:12:19,522 [INFO] CodeEngine:255 - oldGeneratedFile, /home/matthias/Documents/BA/layer-benchmark-2/src/st/workdir/network_output/template_cube_ai_8_1_balanced/Core/Inc/stm32l4xx_it.h_save
2023-10-07 15:12:19,575 [INFO] CodeEngine:279 - Generated code: /home/matthias/Documents/BA/layer-benchmark-2/src/st/workdir/network_output/template_cube_ai_8_1_balanced/Core/Inc/stm32l4xx_it.h
2023-10-07 15:12:19,576 [INFO] IP:3348 - RTE Config file name : RTE_Component
2023-10-07 15:12:19,576 [INFO] IP:3366 - RTE template : RTE_Components.ftl
2023-10-07 15:12:19,576 [INFO] CodeGenerator:2080 - Add RTE Code Input 
2023-10-07 15:12:19,577 [INFO] CodeEngine:255 - oldGeneratedFile, /home/matthias/Documents/BA/layer-benchmark-2/src/st/workdir/network_output/template_cube_ai_8_1_balanced/Core/Inc/RTE_Components.h_save
2023-10-07 15:12:19,646 [INFO] CodeEngine:279 - Generated code: /home/matthias/Documents/BA/layer-benchmark-2/src/st/workdir/network_output/template_cube_ai_8_1_balanced/Core/Inc/RTE_Components.h
2023-10-07 15:12:19,653 [INFO] CodeEngine:255 - oldGeneratedFile, /home/matthias/Documents/BA/layer-benchmark-2/src/st/workdir/network_output/template_cube_ai_8_1_balanced/Core/Src/stm32l4xx_hal_msp.c_save
2023-10-07 15:12:19,822 [INFO] CodeEngine:279 - Generated code: /home/matthias/Documents/BA/layer-benchmark-2/src/st/workdir/network_output/template_cube_ai_8_1_balanced/Core/Src/stm32l4xx_hal_msp.c
2023-10-07 15:12:19,824 [INFO] CodeEngine:255 - oldGeneratedFile, /home/matthias/Documents/BA/layer-benchmark-2/src/st/workdir/network_output/template_cube_ai_8_1_balanced/MXTmpFiles/system.tmp_save
2023-10-07 15:12:19,900 [INFO] CodeEngine:279 - Generated code: /home/matthias/Documents/BA/layer-benchmark-2/src/st/workdir/network_output/template_cube_ai_8_1_balanced/MXTmpFiles/system.tmp
2023-10-07 15:12:19,903 [INFO] CodeEngine:311 - oldGeneratedFile, /home/matthias/Documents/BA/layer-benchmark-2/src/st/workdir/network_output/template_cube_ai_8_1_balanced/Core/Inc/stm32l4xx_hal_conf.h_save
2023-10-07 15:12:19,952 [INFO] CodeEngine:335 - Generated code: /home/matthias/Documents/BA/layer-benchmark-2/src/st/workdir/network_output/template_cube_ai_8_1_balanced/Core/Inc/stm32l4xx_hal_conf.h
2023-10-07 15:12:19,977 [WARN] IPConfigManager:3431 - IP not found : USB_OTG
2023-10-07 15:12:19,978 [WARN] CodeGenerator:3754 - IP not found : null
2023-10-07 15:12:19,980 [INFO] CodeEngine:255 - oldGeneratedFile, /home/matthias/Documents/BA/layer-benchmark-2/src/st/workdir/network_output/template_cube_ai_8_1_balanced/Core/Inc/main.h_save
2023-10-07 15:12:20,035 [INFO] CodeEngine:279 - Generated code: /home/matthias/Documents/BA/layer-benchmark-2/src/st/workdir/network_output/template_cube_ai_8_1_balanced/Core/Inc/main.h
2023-10-07 15:12:20,036 [INFO] CodeEngine:255 - oldGeneratedFile, /home/matthias/Documents/BA/layer-benchmark-2/src/st/workdir/network_output/template_cube_ai_8_1_balanced/Core/Src/main.c_save
2023-10-07 15:12:20,124 [INFO] CodeEngine:279 - Generated code: /home/matthias/Documents/BA/layer-benchmark-2/src/st/workdir/network_output/template_cube_ai_8_1_balanced/Core/Src/main.c
2023-10-07 15:12:20,252 [INFO] AInterface:298 - ModelName:network; files:[/home/matthias/Documents/BA/layer-benchmark-2/src/st/workdir/model.tflite]; type:TFLite; compression:None
2023-10-07 15:12:20,252 [INFO] AInterface:510 - workspaceTempDir: /tmp/mxAI_workspace217528437997712437801522732380325
2023-10-07 15:12:20,252 [INFO] AInterface:1049 - Setting Env: /home/matthias/STM32Cube/Repository/Packs/STMicroelectronics/X-CUBE-AI/8.1.0/Utilities/linux
2023-10-07 15:12:20,252 [INFO] AInterface:1106 - Custom PATH variable: /home/matthias/STM32Cube/Repository/Packs/STMicroelectronics/X-CUBE-AI/8.1.0/Utilities/linux:/bin:/usr/bin:/usr/sbin:/sbin:/home/matthias/STM32Cube/Repository/Packs/STMicroelectronics/X-CUBE-AI/8.1.0/Utilities/linux/node/bin
2023-10-07 15:12:20,261 [INFO] CmdLine:100 - Command: /home/matthias/STM32Cube/Repository/Packs/STMicroelectronics/X-CUBE-AI/8.1.0/Utilities/linux/stm32ai generate --name network -m /home/matthias/Documents/BA/layer-benchmark-2/src/st/workdir/model.tflite --type tflite --compression none --verbosity 1 --workspace /tmp/mxAI_workspace217528437997712437801522732380325 --output /home/matthias/.stm32cubemx/network_output --allocate-inputs --series stm32l4 --allocate-outputs 
2023-10-07 15:12:20,262 [INFO] AIModelDetailledView:2080 - Analysis status: pending
2023-10-07 15:12:26,500 [INFO] CmdLine:67 - Neural Network Tools for STM32 family v1.7.0 (stm.ai v8.1.0-19520)
2023-10-07 15:12:30,078 [ERROR] CmdLine:53 - fatal: not a git repository (or any of the parent directories): .git
2023-10-07 15:12:30,155 [INFO] CmdLine:67 -  
2023-10-07 15:12:30,156 [INFO] CmdLine:67 -  Exec/report summary (generate)
2023-10-07 15:12:30,156 [INFO] CmdLine:67 -  ---------------------------------------------------------------------------------------------------
2023-10-07 15:12:30,156 [INFO] CmdLine:67 -  model file         :   /home/matthias/Documents/BA/layer-benchmark-2/src/st/workdir/model.tflite   
2023-10-07 15:12:30,156 [INFO] CmdLine:67 -  type               :   tflite                                                                      
2023-10-07 15:12:30,156 [INFO] CmdLine:67 -  c_name             :   network                                                                     
2023-10-07 15:12:30,156 [INFO] CmdLine:67 -  compression        :   none                                                                        
2023-10-07 15:12:30,156 [INFO] CmdLine:67 -  options            :   allocate-inputs, allocate-outputs                                           
2023-10-07 15:12:30,156 [INFO] CmdLine:67 -  optimization       :   balanced                                                                    
2023-10-07 15:12:30,156 [INFO] CmdLine:67 -  target/series      :   stm32l4                                                                     
2023-10-07 15:12:30,156 [INFO] CmdLine:67 -  workspace dir      :   /tmp/mxAI_workspace217528437997712437801522732380325                        
2023-10-07 15:12:30,156 [INFO] CmdLine:67 -  output dir         :   /home/matthias/.stm32cubemx/network_output                                  
2023-10-07 15:12:30,157 [INFO] CmdLine:67 -  model_fmt          :   ss/sa per channel                                                           
2023-10-07 15:12:30,157 [INFO] CmdLine:67 -  model_name         :   model                                                                       
2023-10-07 15:12:30,157 [INFO] CmdLine:67 -  model_hash         :   5d13985e2eda8ffe0f5b23c909571878                                            
2023-10-07 15:12:30,157 [INFO] CmdLine:67 -  params #           :   210,850 items (213.93 KiB)                                                  
2023-10-07 15:12:30,157 [INFO] CmdLine:67 -  ---------------------------------------------------------------------------------------------------
2023-10-07 15:12:30,157 [INFO] CmdLine:67 -  input 1/1          :   'serving_default_input_10' (domain:activations/**default**)                 
2023-10-07 15:12:30,157 [INFO] CmdLine:67 -                     :   27648 items, 27.00 KiB, ai_i8, s=0.00392157, zp=-128, (1,96,96,3)           
2023-10-07 15:12:30,157 [INFO] CmdLine:67 -  output 1/1         :   'gemm_29' (domain:activations/**default**)                                  
2023-10-07 15:12:30,157 [INFO] CmdLine:67 -                     :   2 items, 2 B, ai_i8, s=0.02482977, zp=3, (1,2)                              
2023-10-07 15:12:30,157 [INFO] CmdLine:67 -  macc               :   4,669,480                                                                   
2023-10-07 15:12:30,157 [INFO] CmdLine:67 -  weights (ro)       :   39,864 B (38.93 KiB) (1 segment) / -803,536(-95.3%) vs float model          
2023-10-07 15:12:30,157 [INFO] CmdLine:67 -  activations (rw)   :   41,152 B (40.19 KiB) (1 segment) *                                          
2023-10-07 15:12:30,157 [INFO] CmdLine:67 -  ram (total)        :   41,152 B (40.19 KiB) = 41,152 + 0 + 0                                       
2023-10-07 15:12:30,157 [INFO] CmdLine:67 -  ---------------------------------------------------------------------------------------------------
2023-10-07 15:12:30,157 [INFO] CmdLine:67 -  (*) 'input'/'output' buffers can be used from the activations buffer
2023-10-07 15:12:30,656 [INFO] CmdLine:67 -                                                        
2023-10-07 15:12:30,656 [INFO] CmdLine:67 -  Requested memory size per segment ("stm32l4" series)
2023-10-07 15:12:30,657 [INFO] CmdLine:67 -  ----------------------------- -------- -------- -------- --------
2023-10-07 15:12:30,657 [INFO] CmdLine:67 -  module                            text   rodata     data      bss
2023-10-07 15:12:30,657 [INFO] CmdLine:67 -  ----------------------------- -------- -------- -------- --------
2023-10-07 15:12:30,657 [INFO] CmdLine:67 -  NetworkRuntime810_CM4_GCC.a     25,176        0        0        0
2023-10-07 15:12:30,657 [INFO] CmdLine:67 -  network.o                        2,584    8,193   15,384      656
2023-10-07 15:12:30,657 [INFO] CmdLine:67 -  network_data.o                      52       16       88        0
2023-10-07 15:12:30,657 [INFO] CmdLine:67 -  lib (toolchain)*                 1,652        0        0        0
2023-10-07 15:12:30,657 [INFO] CmdLine:67 -  ----------------------------- -------- -------- -------- --------
2023-10-07 15:12:30,658 [INFO] CmdLine:67 -  RT total**                      29,464    8,209   15,472      656
2023-10-07 15:12:30,658 [INFO] CmdLine:67 -  ----------------------------- -------- -------- -------- --------
2023-10-07 15:12:30,658 [INFO] CmdLine:67 -  *weights*                            0   39,864        0        0
2023-10-07 15:12:30,658 [INFO] CmdLine:67 -  *activations*                        0        0        0   41,152
2023-10-07 15:12:30,658 [INFO] CmdLine:67 -  *io*                                 0        0        0        0
2023-10-07 15:12:30,658 [INFO] CmdLine:67 -  ----------------------------- -------- -------- -------- --------
2023-10-07 15:12:30,658 [INFO] CmdLine:67 -  TOTAL                           29,464   48,073   15,472   41,808
2023-10-07 15:12:30,658 [INFO] CmdLine:67 -  ----------------------------- -------- -------- -------- --------
2023-10-07 15:12:30,658 [INFO] CmdLine:67 -  *  toolchain objects (libm/libgcc*)
2023-10-07 15:12:30,658 [INFO] CmdLine:67 -  ** RT - AI runtime objects (kernels+infrastructure)
2023-10-07 15:12:30,658 [INFO] CmdLine:67 -                                                        
2023-10-07 15:12:30,658 [INFO] CmdLine:67 -   Summary per memory device type
2023-10-07 15:12:30,658 [INFO] CmdLine:67 -   ---------------------------------------------
2023-10-07 15:12:30,658 [INFO] CmdLine:67 -   .\device      FLASH       %      RAM       %
2023-10-07 15:12:30,659 [INFO] CmdLine:67 -   ---------------------------------------------
2023-10-07 15:12:30,659 [INFO] CmdLine:67 -   RT total     53,145   57.1%   16,128   28.2%
2023-10-07 15:12:30,659 [INFO] CmdLine:67 -   ---------------------------------------------
2023-10-07 15:12:30,659 [INFO] CmdLine:67 -   TOTAL        93,009           57,280
2023-10-07 15:12:30,659 [INFO] CmdLine:67 -   ---------------------------------------------
2023-10-07 15:12:30,659 [INFO] CmdLine:67 -                                                        
2023-10-07 15:12:30,659 [INFO] CmdLine:67 -  Generated files (7)
2023-10-07 15:12:30,659 [INFO] CmdLine:67 -  ------------------------------------------------------------------
2023-10-07 15:12:30,659 [INFO] CmdLine:67 -  /home/matthias/.stm32cubemx/network_output/network_config.h
2023-10-07 15:12:30,660 [INFO] CmdLine:67 -  /home/matthias/.stm32cubemx/network_output/network.h
2023-10-07 15:12:30,660 [INFO] CmdLine:67 -  /home/matthias/.stm32cubemx/network_output/network.c
2023-10-07 15:12:30,660 [INFO] CmdLine:67 -  /home/matthias/.stm32cubemx/network_output/network_data_params.h
2023-10-07 15:12:30,660 [INFO] CmdLine:67 -  /home/matthias/.stm32cubemx/network_output/network_data_params.c
2023-10-07 15:12:30,660 [INFO] CmdLine:67 -  /home/matthias/.stm32cubemx/network_output/network_data.h
2023-10-07 15:12:30,660 [INFO] CmdLine:67 -  /home/matthias/.stm32cubemx/network_output/network_data.c
2023-10-07 15:12:30,660 [INFO] CmdLine:67 -                                                        
2023-10-07 15:12:30,660 [INFO] CmdLine:67 - Creating txt report file /home/matthias/.stm32cubemx/network_output/network_generate_report.txt
2023-10-07 15:12:31,322 [INFO] CmdLine:67 - elapsed time (generate): 4.823s
2023-10-07 15:12:31,798 [INFO] CmdLine:132 - stm32ai exit with status: 0
2023-10-07 15:12:31,808 [INFO] AInterface:601 - Successfully load: network
2023-10-07 15:12:31,829 [INFO] AIModelDetailledView:2080 - Analysis status: done
2023-10-07 15:12:32,125 [INFO] ProjectBuilder:2996 - Time for Copy HAL[1] : 44mS.
2023-10-07 15:12:32,125 [ERROR] Middleware:2969 - Invalid RefComponent liste
2023-10-07 15:12:32,125 [ERROR] Middleware:2969 - Invalid RefComponent liste
2023-10-07 15:12:32,125 [ERROR] Middleware:2969 - Invalid RefComponent liste
2023-10-07 15:12:32,125 [ERROR] Middleware:2969 - Invalid RefComponent liste
2023-10-07 15:12:32,125 [ERROR] Middleware:2969 - Invalid RefComponent liste
2023-10-07 15:12:32,125 [ERROR] Middleware:2969 - Invalid RefComponent liste
2023-10-07 15:12:32,125 [ERROR] Middleware:2969 - Invalid RefComponent liste
2023-10-07 15:12:32,125 [ERROR] Middleware:2969 - Invalid RefComponent liste
2023-10-07 15:12:32,125 [ERROR] Middleware:2969 - Invalid RefComponent liste
2023-10-07 15:12:32,125 [ERROR] Middleware:2969 - Invalid RefComponent liste
2023-10-07 15:12:32,125 [ERROR] Middleware:2969 - Invalid RefComponent liste
2023-10-07 15:12:32,125 [ERROR] Middleware:2969 - Invalid RefComponent liste
2023-10-07 15:12:32,125 [ERROR] Middleware:2969 - Invalid RefComponent liste
2023-10-07 15:12:32,125 [ERROR] Middleware:2969 - Invalid RefComponent liste
2023-10-07 15:12:32,125 [ERROR] Middleware:2969 - Invalid RefComponent liste
2023-10-07 15:12:32,125 [ERROR] Middleware:2969 - Invalid RefComponent liste
2023-10-07 15:12:32,125 [ERROR] Middleware:2969 - Invalid RefComponent liste
2023-10-07 15:12:32,125 [ERROR] Middleware:2969 - Invalid RefComponent liste
2023-10-07 15:12:32,125 [ERROR] Middleware:2969 - Invalid RefComponent liste
2023-10-07 15:12:32,125 [ERROR] Middleware:2969 - Invalid RefComponent liste
2023-10-07 15:12:32,125 [ERROR] Middleware:2969 - Invalid RefComponent liste
2023-10-07 15:12:32,125 [ERROR] Middleware:2969 - Invalid RefComponent liste
2023-10-07 15:12:32,125 [ERROR] Middleware:2969 - Invalid RefComponent liste
2023-10-07 15:12:32,125 [ERROR] Middleware:2969 - Invalid RefComponent liste
2023-10-07 15:12:32,125 [ERROR] Middleware:2969 - Invalid RefComponent liste
2023-10-07 15:12:32,125 [ERROR] Middleware:2969 - Invalid RefComponent liste
2023-10-07 15:12:32,125 [ERROR] Middleware:2969 - Invalid RefComponent liste
2023-10-07 15:12:32,126 [ERROR] Middleware:2969 - Invalid RefComponent liste
2023-10-07 15:12:32,126 [ERROR] Middleware:2969 - Invalid RefComponent liste
2023-10-07 15:12:32,126 [ERROR] Middleware:2969 - Invalid RefComponent liste
2023-10-07 15:12:32,126 [ERROR] Middleware:2969 - Invalid RefComponent liste
2023-10-07 15:12:32,126 [ERROR] Middleware:2969 - Invalid RefComponent liste
2023-10-07 15:12:32,126 [ERROR] Middleware:2969 - Invalid RefComponent liste
2023-10-07 15:12:32,126 [ERROR] Middleware:2969 - Invalid RefComponent liste
2023-10-07 15:12:32,126 [ERROR] Middleware:2969 - Invalid RefComponent liste
2023-10-07 15:12:32,126 [ERROR] Middleware:2969 - Invalid RefComponent liste
2023-10-07 15:12:32,126 [ERROR] Middleware:2969 - Invalid RefComponent liste
2023-10-07 15:12:32,126 [ERROR] Middleware:2969 - Invalid RefComponent liste
2023-10-07 15:12:32,126 [ERROR] Middleware:2969 - Invalid RefComponent liste
2023-10-07 15:12:32,126 [ERROR] Middleware:2969 - Invalid RefComponent liste
2023-10-07 15:12:32,126 [ERROR] Middleware:2969 - Invalid RefComponent liste
2023-10-07 15:12:32,126 [ERROR] Middleware:2969 - Invalid RefComponent liste
2023-10-07 15:12:32,126 [ERROR] Middleware:2969 - Invalid RefComponent liste
2023-10-07 15:12:32,126 [ERROR] Middleware:2969 - Invalid RefComponent liste
2023-10-07 15:12:32,126 [ERROR] Middleware:2969 - Invalid RefComponent liste
2023-10-07 15:12:32,126 [ERROR] Middleware:2969 - Invalid RefComponent liste
2023-10-07 15:12:32,126 [ERROR] Middleware:2969 - Invalid RefComponent liste
2023-10-07 15:12:32,126 [ERROR] Middleware:2969 - Invalid RefComponent liste
2023-10-07 15:12:32,126 [ERROR] Middleware:2969 - Invalid RefComponent liste
2023-10-07 15:12:32,126 [ERROR] Middleware:2969 - Invalid RefComponent liste
2023-10-07 15:12:32,126 [ERROR] Middleware:2969 - Invalid RefComponent liste
2023-10-07 15:12:32,126 [ERROR] Middleware:2969 - Invalid RefComponent liste
2023-10-07 15:12:32,126 [ERROR] Middleware:2969 - Invalid RefComponent liste
2023-10-07 15:12:32,126 [ERROR] Middleware:2969 - Invalid RefComponent liste
2023-10-07 15:12:32,126 [ERROR] Middleware:2969 - Invalid RefComponent liste
2023-10-07 15:12:32,126 [ERROR] Middleware:2969 - Invalid RefComponent liste
2023-10-07 15:12:32,126 [ERROR] Middleware:2969 - Invalid RefComponent liste
2023-10-07 15:12:32,126 [ERROR] Middleware:2969 - Invalid RefComponent liste
2023-10-07 15:12:32,126 [ERROR] Middleware:2969 - Invalid RefComponent liste
2023-10-07 15:12:32,126 [ERROR] Middleware:2969 - Invalid RefComponent liste
2023-10-07 15:12:32,126 [ERROR] Middleware:2969 - Invalid RefComponent liste
2023-10-07 15:12:32,126 [ERROR] Middleware:2969 - Invalid RefComponent liste
2023-10-07 15:12:32,126 [ERROR] Middleware:2969 - Invalid RefComponent liste
2023-10-07 15:12:32,126 [ERROR] Middleware:2969 - Invalid RefComponent liste
2023-10-07 15:12:32,136 [INFO] ProjectBuilder:4304 - Project Generator version: 3.19.2
2023-10-07 15:12:32,311 [INFO] ConfigFileManager:1483 - The Die is : DIE470
2023-10-07 15:12:32,312 [INFO] ApiDbMcu:507 - Load IP Config File for FATFS
2023-10-07 15:12:32,315 [INFO] ApiDbMcu:507 - Load IP Config File for FREERTOS
2023-10-07 15:12:32,322 [INFO] ApiDbMcu:507 - Load IP Config File for TOUCHSENSING
2023-10-07 15:12:32,325 [INFO] ApiDbMcu:507 - Load IP Config File for USB_DEVICE
2023-10-07 15:12:32,328 [INFO] ApiDbMcu:507 - Load IP Config File for USB_HOST
2023-10-07 15:12:33,911 [INFO] ConfigFileManager:2717 - mx.scratch is deleted!
2023-10-07 15:12:33,911 [INFO] ProjectBuilder:4505 - Time for Generating toolchain IDE Files: 1776mS.
2023-10-07 15:12:33,911 [INFO] ProjectBuilder:2867 - Time for Copy CMSIS : 0mS.
2023-10-07 15:12:33,912 [INFO] ProjectBuilder:2867 - Time for Copy CMSIS : 0mS.
OK
exit
Bye bye
